FashionMnist_LeNet.pt (torch, 192829 bytes, 10 tensors)

weight f4 [6, 1, 5, 5]
000000 57 f1 25 bf cb 15 5c 3e 9c a8 17 3f bb 53 a8 3c
       -0.6482138 0.21492688 0.5924165 0.020547738
000010 0c ea de 3b e6 a4 80 bd ed 5c 89 be 79 39 ba 3d
       0.006802803 -0.06281452 -0.2682871 0.09092993
000020 0f ee ef be 1d 58 50 be 57 99 19 be be 4b 85 be
       -0.46861312 -0.20346113 -0.14999901 -0.2603435
000030 71 05 27 be 10 50 49 3e e1 e7 8c 3e 68 59 52 3d
       -0.1631067 0.19659448 0.2752066 0.051354796
000040 91 dd df 3e f6 a2 3c 3d 4a bc fe 3e 68 d9 ce 3d
       0.4372373 0.04605385 0.49753028 0.10100061
000050 41 3e 34 3f ea f8 70 3e c7 71 f3 bd 12 63 3b 3e
       0.7040749 0.23532453 -0.11886936 0.18299511
000060 6e 69 0e 3e 93 66 19 bf ea 86 3e bf bd 4e 59 bd
       0.13907406 -0.5992214 -0.7442461 -0.053053606
000070 52 63 e5 3e 1c 2e ae 3e d5 47 4b bf ba cc 32 bf
       0.44802338 0.34019554 -0.7940648 -0.6984364
000080 52 69 bd 3e d3 1a 1a 3f 09 6f c3 3d d9 20 98 3e
       0.36994416 0.6019718 0.09542663 0.2971256
000090 2b a5 47 be 2b f5 dd 3d 6a 4e b4 3d 26 fb 97 3e
       -0.194966 0.10837778 0.08804019 0.296838
0000a0 93 e3 01 be d2 81 7c be 6d 80 2e 3f 13 f5 7c 3e
       -0.12684469 -0.24658898 0.6816471 0.24702863
0000b0 88 20 16 bd 7d 3d 6c 3d 11 bb 15 3e 2b 2a 9d 3e
       -0.036652118 0.057675827 0.14622141 0.30696234
0000c0 2e e8 7f 3d 9d bd 25 bf 96 60 ce bd d5 43 4a be
       0.062477283 -0.6474245 -0.10077016 -0.19752438
0000d0 11 97 42 be 9d 78 27 bf 0c ac dc be 07 c4 17 3e
       -0.1900294 -0.65418416 -0.4310001 0.14820872
0000e0 8e a8 00 3f 07 5a 7c be d1 9b 7f bf b5 fd f5 be
       0.50257194 -0.24643718 -0.9984713 -0.48045126
0000f0 76 61 ad 3e 8e f6 aa 3e 92 89 98 3d 8f 85 0b bf
       0.3386342 0.3339123 0.074481145 -0.5450067
000100 ae 5d 9e bd 36 27 6a 3e d2 b1 a1 3e 2f a8 d6 3d
       -0.07732712 0.2286652 0.3158098 0.10481297
000110 a3 53 06 be 09 a7 09 3e 92 7d 6d 3e 99 d1 1f be
       -0.13117842 0.13442625 0.23192433 -0.15607299
000120 f7 49 ff 3d 96 a0 44 be df 73 b9 3e 27 b6 7d 3f
       0.124652795 -0.19201884 0.36221215 0.9910607
000130 0c 9f 21 3e 65 b3 32 bf 6a ee 0e bf 43 27 38 bf
       0.15783328 -0.69804984 -0.5583254 -0.7193491
000140 f6 0e 41 3e e2 97 77 3e 96 b9 92 3e 21 1a be 3e
       0.18853363 0.24179032 0.28657216 0.3712931
000150 f9 ec 0c 3f b2 c2 17 3f fa 36 e8 3b d1 e5 48 be
       0.5504909 0.59281456 0.007086632 -0.19618918
000160 1f 91 6c 3e a5 55 5f 3e 4c ad 4a 3f ec 44 40 bf
       0.23102234 0.21810015 0.7917068 -0.75105166
000170 7b d3 be be ed 86 5c 3c 24 3c ee bc e6 8a 08 3e
       -0.37270722 0.013459903 -0.029081412 0.13334236
000180 36 c0 64 bf 6e dd 29 be 19 5b 0e be d9 e6 6a bc
       -0.8935579 -0.16588375 -0.13901938 -0.014337265
000190 e5 8a b4 be 38 20 4b 3f df 0d 93 be f7 da 03 be
       -0.35262218 0.79346037 -0.2872152 -0.12876497
0001a0 f2 ed 6f bd d0 19 d9 be 28 46 97 3f 0c 09 29 bf
       -0.05857653 -0.42402506 1.1818285 -0.6602943
0001b0 f9 2d 8e bd fa 05 9a bd 4c cb f3 be f4 44 49 3f
       -0.06942362 -0.07520671 -0.4761604 0.7862084
0001c0 da 77 aa bc e5 22 4c be 7d 09 30 bc d8 c2 6c bf
       -0.020809103 -0.19935186 -0.01074445 -0.9248481
0001d0 39 b4 dd 3e 41 f6 13 3f 2a 3c 9b bc 24 43 42 bc
       0.4330156 0.5779763 -0.018949587 -0.011856828
0001e0 c4 a8 85 bf b0 fc b3 3e fb 16 a8 3e a1 90 88 3e
       -1.0442128 0.35153723 0.32830033 0.26672843
0001f0 4c bb d2 3d 27 90 a1 be 50 b3 39 bd 1d b9 50 3e
       0.1028963 -0.31555292 -0.04533702 0.20383115
000200 97 4d ff 3e 11 73 12 be 6c 92 9c be ec e8 1a 3d
       0.49863884 -0.14301707 -0.3058046 0.037819788
000210 e6 d7 28 3d 39 7a 3d 3e 28 0d 1f 3e 6e a3 a7 be
       0.04122152 0.18503655 0.15532362 -0.32741874
000220 dd 13 1c be 75 1e 8d bd f9 33 06 3e 63 03 67 be
       -0.15241952 -0.06890575 0.13105763 -0.22559886
000230 b2 18 2a bf 29 b9 66 be 03 79 9b bd ff 4e ef bd
       -0.6644393 -0.2253157 -0.075914405 -0.11684989
000240 6c 97 69 3e 5c 14 a0 be 20 c3 86 be 57 fc ab be
       0.22811669 -0.31265533 -0.26320744 -0.33590958
000250 71 b2 30 bf 30 65 4d bf
       -0.6902228 -0.80232525

bias f4 [6]
000000 80 f3 e4 3d c6 c5 37 3d 50 4b 53 bf a6 04 d6 bc
       0.111792564 0.044866346 -0.8253679 -0.026125263
000010 0f d0 ce bd db 16 c7 bf
       -0.10098278 -1.555385

weight f4 [16, 6, 5, 5]
000000 19 16 1c be 95 e3 48 be f7 19 0f be f3 52 de 3d
       -0.15242805 -0.19618066 -0.13974749 0.10855665
000010 f0 83 e8 3b 96 22 7a be 70 26 88 be ef 0f f4 bd
       0.0070958063 -0.24427256 -0.26591825 -0.119171016
000020 6f 43 93 3e 82 cb 8c 3e e1 b7 86 be e4 87 aa be
       0.28762385 0.27499014 -0.26312163 -0.333068
000030 fe af 70 be 3f cf 48 3e fb 8f 08 3e 29 35 1a be
       -0.23504636 0.19610308 0.13336174 -0.15059341
000040 77 0c 5e bd 3b ad 33 3d 69 49 ae 3e dc bd 75 3e
       -0.054211106 0.043866377 0.34040383 0.23998207
000050 45 af 62 bc d7 79 12 be c2 32 11 be 2e 14 82 be
       -0.013835733 -0.1430429 -0.14179519 -0.2540602
000060 92 e7 15 3c 5a 4b 6c bc 3a bd 97 be 8f 9e 4f be
       0.009149449 -0.014422262 -0.29636556 -0.20275329
000070 36 86 3f 3d 11 a6 5c be ed 59 df bd 09 eb 6c be
       0.046758853 -0.21547724 -0.10905824 -0.23136534
000080 1c 26 f4 bd ad e0 e2 bd 66 18 1b be 87 bd 3f bd
       -0.11921331 -0.1107801 -0.15146026 -0.046811607
000090 55 89 a0 be ff 16 3a 3e c6 d7 25 bd 4f 61 bb bb
       -0.31354776 0.18172835 -0.04048898 -0.005718387
0000a0 04 ed 10 3e 48 bd a4 bd 2c de a8 3e f4 80 b9 bd
       0.14152914 -0.08043915 0.32982004 -0.09057799
0000b0 56 3e 47 be d1 34 04 3f 03 e9 2b 3e 2f f3 77 be
       -0.19457373 0.5164309 0.16788106 -0.24213861
0000c0 a0 00 b9 be dc ee 98 bd 40 66 29 be 02 10 ab 3d
       -0.3613329 -0.07467434 -0.16542912 0.083526626
0000d0 fb af ac 3c 94 22 08 3e cd 89 8b 3e 5d 56 0e be
       0.021080008 0.1329444 0.2725357 -0.13900132
0000e0 49 10 8d bd ab 8c 30 3d 4c 0c 10 be 77 41 21 3e
       -0.06887872 0.0431029 -0.14067191 0.15747629
0000f0 b4 64 8e be 71 71 13 be 37 8c 70 bd 30 5a 80 be
       -0.27811205 -0.14398743 -0.05872747 -0.25068808
000100 05 07 38 3d 14 d0 2c be e3 0c 9d be b8 dc b4 be
       0.04492857 -0.1687625 -0.30673894 -0.35324645
000110 ba 61 9f be c9 4a 71 bd 21 25 91 bd c6 78 66 3e
       -0.31129247 -0.05890921 -0.0708716 0.22507009
000120 d3 d6 bc bd e9 c2 c2 3d c9 29 25 be e8 03 09 be
       -0.09220662 0.095098324 -0.16129221 -0.13380396
000130 f9 7a 86 be f2 b6 76 bc b2 d1 ea bd 5e 72 35 be
       -0.26265696 -0.015058266 -0.114657775 -0.17719409
000140 b0 15 4b bd 5e d3 07 be 9e cc 0b 3e 46 fd 9e 3d
       -0.04958123 -0.13264224 0.13652274 0.07763152
000150 c1 c5 78 be 31 fc 89 3c 82 e1 8c be 92 8f ff 3d
       -0.24294187 0.016843887 -0.275158 0.12478556
000160 0a 7f b6 3c 05 6e 2b bd 62 5a 56 be 30 24 9f be
       0.022277374 -0.04185297 -0.20932916 -0.31082296
000170 8e 3c 9b 3d 4d 4c 82 bd 5e 8f f6 3d 96 0b df 3c
       0.07579909 -0.063622095 0.12039064 0.027227204
000180 c0 eb 80 3e d4 70 7d 3f 1d f1 3d 3e de 94 74 be
       0.25179863 0.9900029 0.18549009 -0.23884913
000190 ab e1 a7 3d 9e 29 c7 bc e1 e2 d1 bc c3 15 62 bc
       0.081973396 -0.024311837 -0.02562088 -0.013799134
0001a0 2e ef 71 3d 79 74 4a be 05 df 52 bd a6 de 30 3e
       0.05906599 -0.19770993 -0.05148222 0.17272434
0001b0 be 80 90 3d 8c 3b 82 bb be d2 9b 3b 8f 00 f3 bb
       0.070558056 -0.0039743837 0.004755347 -0.007415838
0001c0 62 d4 10 3e 33 72 61 3d b2 80 5f bd bd a1 09 bc
       0.14143518 0.05504055 -0.054566093 -0.008400378
0001d0 17 b6 b8 3d 4e 7e 71 3d d8 86 db bd 98 da 8b bd
       0.09019106 0.058958344 -0.10719079 -0.06828803
0001e0 19 2c 42 3e 74 bc 18 bb f8 ff 29 be 64 10 b3 bd
       0.18962134 -0.0023305686 -0.1660155 -0.08743361
0001f0 64 1a 97 bd ac 1a 8f 3d ba 52 47 be cf ff ce be
       -0.073780805 0.06987509 -0.19465151 -0.4042954
000200 55 79 71 bc 76 bc 36 be 32 9b 72 3e 9b 05 18 bd
       -0.0147384005 -0.1784533 0.23692015 -0.03711472
000210 cd 43 3d be fe d6 13 be 75 a5 9f be d9 15 80 3e
       -0.18482895 -0.14437482 -0.3118092 0.25016668
000220 f7 81 f5 3d dd 7a 74 bd db 99 7f bc a4 75 bc be
       0.119876795 -0.059687484 -0.015600647 -0.36808503
000230 19 73 0e 3e f9 d5 3d 3e 15 d0 19 3e 19 4d 82 3e
       0.13911094 0.18538655 0.15020783 0.25449446
000240 16 e7 b4 bd 7c e9 d3 be d8 bd b0 bc 0e 98 73 3f
       -0.08833139 -0.41389072 -0.0215749 0.9515389
000250 47 8f 3f 3f eb fd af 3e 37 79 71 bd a5 3c 7e 3a
       0.74828 0.34373412 -0.05895349 0.0009698368
000260 c5 02 0b be af e2 90 bd 9c 09 a1 be dc 05 2b 3d
       -0.13575275 -0.070744865 -0.31452644 0.041753635
000270 a0 59 af 3d 0e c1 11 be f3 67 03 be be ba 0b be
       0.085620165 -0.14233801 -0.12832622 -0.13645455
000280 63 08 59 3e 35 0d 05 be e5 20 1c 3b e6 9a b2 bd
       0.21194606 -0.1299332 0.0023823318 -0.08720951
000290 11 20 49 be af 9c 9b 3d 50 49 16 3e 3a d9 65 3d
       -0.19641139 0.075982444 0.14676404 0.056115367
0002a0 39 b0 f9 3d 34 f3 b9 bd b6 d7 e9 bd 04 d4 b2 3c
       0.12191815 -0.090795904 -0.11418097 0.021829613
0002b0 7c ed 8d 3d 49 9d 82 3d 05 ca 72 be 24 48 54 be
       0.06930062 0.06377656 -0.23709877 -0.20730644
0002c0 ce 2f 52 be 4f 2a cf 3d ee de 1a 3e 55 0c 4e bd
       -0.20526049 0.101154916 0.15124103 -0.05030473
0002d0 96 b6 44 3e d5 e1 84 3e e2 bf 57 3e db 61 62 3e
       0.19210276 0.25953546 0.21069291 0.22107641
0002e0 7d cb 73 be bb 86 19 bd e5 aa 7a bd b1 cc 9c 3d
       -0.23808093 -0.037482005 -0.061198134 0.07656229
0002f0 f5 26 21 be b6 27 73 bd af 8e 26 be 8c 02 42 3d
       -0.15737517 -0.059364043 -0.16265367 0.04736571
000300 92 15 77 bd d5 15 01 be 9c 90 ed 3d 17 7a fb bd
       -0.060323305 -0.12605985 0.11599848 -0.12279146
000310 7b 18 6b bd e1 26 15 bb e9 dd 9a bd 32 ef a2 3d
       -0.057396393 -0.002275877 -0.07561857 0.07955779
000320 7a 42 94 3e d0 9b bc 3e 08 59 6d 3d bd 48 34 be
       0.28956968 0.36837626 0.057946235 -0.17605872
000330 90 b6 c4 bd 2a 7b c6 3e 52 92 93 bd 03 cc 69 3e
       -0.096051335 0.38765842 -0.07205643 0.2283173
000340 cd b2 27 bd 95 25 0d 3e ab 9b 66 3e 23 0b 50 be
       -0.040942002 0.13783868 0.2252032 -0.20316748
000350 0f c6 20 be b7 87 d2 3c bb d2 d2 bd fa 59 98 3c
       -0.15700553 0.02569948 -0.102941 0.018597592
000360 78 df 9d 3d 6d b5 ad bb 27 23 ab 3e cf 34 57 3d
       0.07708639 -0.0053011687 0.33425257 0.052540597
000370 c0 d0 08 be 56 98 7f 3e 7b 96 b2 bb f9 66 22 be
       -0.13360882 0.24960455 -0.0054500676 -0.15859593
000380 ef 75 10 be ea e9 22 3e 83 fd 1d 3e 21 6b e7 be
       -0.14107488 0.15909544 0.15428738 -0.4519892
000390 f6 ae db 3c 6f 08 8c be ee 42 85 3e 89 7b da 3e
       0.026816826 -0.27350184 0.26027626 0.42672375
0003a0 bf d7 83 bd 2a 0a 3a bd fa 1e b5 3d d3 96 c2 3e
       -0.06437635 -0.04541985 0.08843799 0.38005695
0003b0 77 13 1a 3e 97 05 2f 3e e9 c0 a8 bd 97 2b 52 3e
       0.15046488 0.17091976 -0.0823992 0.2052444
0003c0 3f 80 35 3e f1 0c 4c 3d ff 97 d5 bd 2c 1a 51 be
       0.17724703 0.04981703 -0.104293816 -0.2042014
0003d0 ba 6f d7 bd 20 42 24 3e ef 73 91 3e 0a 91 1d 3e
       -0.10519357 0.1604085 0.28408763 0.1538736
0003e0 d1 b8 3f be 18 7a 67 bd cc 45 04 be 97 42 02 3e
       -0.18722846 -0.056512922 -0.1291725 0.12720715
0003f0 e5 e9 8f 3e 49 41 14 3e 6b 95 25 3e 4d b5 81 3e
       0.28108135 0.1447803 0.1617028 0.25333634

bias f4 [16]
000000 9a 4c 02 be 56 ec 02 bf da 83 1f bf 08 13 f2 3d
       -0.12724534 -0.5114187 -0.62310565 0.11820036
000010 ec 7a 6f 3e 04 7b 0a be a1 b0 8f be 4e 60 ab 3e
       0.23386735 -0.13523489 -0.28064445 0.33471912
000020 05 02 01 be fa f8 28 3f 80 ce 81 be a6 b5 cd 3e
       -0.12598427 0.6600491 -0.2535286 0.4017765
000030 9f e8 47 be dc 8d 16 3f 1e ee 14 3d 60 84 fe 3c
       -0.19522332 0.5881021 0.0363599 0.03106898

weight f4 [120, 256]
000000 fb a9 9f 3d 1e d6 62 3c 0a c7 25 bd 08 27 51 bd
       0.07796093 0.013844995 -0.04047302 -0.051062614
000010 95 63 75 bd 70 87 b1 3a 60 b5 7c 3d 3d 2b a8 3c
       -0.059909422 0.0013544392 0.06169641 0.02052843
000020 28 91 47 bd ce da 5a bb b2 31 67 3a 07 30 7c bd
       -0.048722416 -0.0033394578 0.0008819356 -0.06156924
000030 a7 d9 fb bc 3d 7a a2 3c 6a c2 07 3d 2c 44 e1 3c
       -0.030743433 0.019833678 0.033144392 0.027498327
000040 13 2d 33 bd 81 14 cc bc a7 f1 11 3e 9e 81 ee bb
       -0.043744158 -0.02491212 0.1425234 -0.007278635
000050 5d 0d 3d bd 88 ad 3d 3d 1c 9a d6 3c 02 8d f8 3a
       -0.046155322 0.04630807 0.026196532 0.0018962922
000060 d5 be b3 bc 06 1c 86 3d e2 d3 b2 3d a4 13 17 bc
       -0.021941582 0.06548314 0.0873182 -0.009220991
000070 df 75 d9 ba b7 96 ad 3c 81 c2 6e bc 7d f5 f3 3c
       -0.0016590914 0.02119003 -0.0145727405 0.029780144
000080 29 bb 0b 3c 50 9d 3c 3d 52 92 51 bd c5 76 ac bd
       0.008528509 0.046048462 -0.051164933 -0.08421091
000090 f8 92 4d 3d 17 27 72 3c 05 23 73 bd d5 4a 77 bd
       0.05018899 0.014779828 -0.05935957 -0.0603741
0000a0 93 33 3e bc 8c f0 0f bd ff 58 b9 3c ff 8f 88 3b
       -0.011608976 -0.035141513 0.022625444 0.0041675563
0000b0 f5 a5 d4 bd d5 2e f4 3c 19 46 92 3d 38 a2 1f bd
       -0.10383216 0.029807488 0.07142276 -0.038973063
0000c0 92 94 31 3c d5 7d a2 3c ef be 22 bd 15 e9 0c bb
       0.010838645 0.019835392 -0.03973287 -0.0021501232
0000d0 07 81 27 bd 83 af 58 bd b4 9d bd bb 48 44 31 3d
       -0.040894534 -0.052901756 -0.005786622 0.04327801
0000e0 dc 24 0c bc 50 c3 cd 3c a4 6b 86 3d 3c a5 63 39
       -0.00855371 0.025117546 0.065634996 0.00021709962
0000f0 3b 1b 1a 3d b5 9b 95 bc 60 c2 d3 bc 96 31 53 3d
       0.037623625 -0.018262723 -0.025849521 0.05156096
000100 90 ed 11 bd 0e 4a a8 bc 19 9b 0e bd 97 b5 a1 bd
       -0.035626948 -0.020543125 -0.03481588 -0.07895964
000110 c0 65 81 3d 7e 5b 82 3c 50 2d 9c bd a6 c4 ee bc
       0.063182354 0.015912767 -0.0762583 -0.029146504
000120 4d 2a b4 3c 88 99 7b 3d 36 9c 6b bd 81 bd 43 bd
       0.021992827 0.061425716 -0.05752202 -0.047788147
000130 ce 70 44 bd f9 4a d8 3c 93 19 8d 3c 31 9e ce 3c
       -0.04795914 0.026402937 0.017224109 0.025221916
000140 39 8f 20 bc be f3 01 bc e6 ea 88 bd 76 6f 1b bd
       -0.009799772 -0.007931648 -0.06685428 -0.037948094
000150 13 8f d5 b9 dc 16 ab bc e2 ba 8b 3d 7f 4d 38 bc
       -0.00040733124 -0.020884924 0.068227544 -0.011248945
000160 53 26 4c 3d 30 73 b5 bd d8 8b 39 3b ec d8 29 3d
       0.049841236 -0.08859861 0.0028312113 0.04146664
000170 73 8f 28 3d a0 bc 2c bd 1d 9b 66 bd ac 0d 49 bd
       0.04115243 -0.042172074 -0.05630027 -0.049085304
000180 ca 92 c5 bb 95 4e 1f bd 6b ff 53 3d 49 09 7f 3d
       -0.0060294615 -0.0388933 0.051757257 0.062264714
000190 22 89 f2 3c a7 f5 71 bc 04 2f c4 bb 28 37 56 3d
       0.029606406 -0.014768041 -0.00598705 0.052298695
0001a0 79 ad 18 bd 3a dc 15 3d 20 d4 8e bd 75 f4 1e bd
       -0.03727481 0.036586978 -0.069740534 -0.03880735
0001b0 12 8b 87 3c 97 ba 2e 3d 75 42 22 bd 2d 7f ee 3c
       0.016545806 0.042658415 -0.03961416 0.029113377
0001c0 db 04 36 3d 4d 87 93 bc 0a dc 3a 3d d5 d3 01 3d
       0.044438224 -0.018008852 0.04562 0.03169616
0001d0 7a 90 38 bd 53 80 52 3c 40 37 86 bc 99 dd 1f 3c
       -0.04505966 0.012847978 -0.016383767 0.009757423
0001e0 82 ca 8b 3c 88 f8 d4 bb a3 8b 61 3d 6c 68 01 bd
       0.017064337 -0.006499354 0.05506481 -0.031593725
0001f0 16 2c c5 bc 0d 7c 33 bd 06 b8 00 3c 9d 74 30 3d
       -0.024068873 -0.043819476 0.007856375 0.04307996
000200 3e 24 5e 3c 34 52 26 3d 90 e4 cd bd 2f 60 fb 3c
       0.0135584455 0.04060574 -0.100533605 0.030685512
000210 34 b0 4f bd 75 2b 38 3d 95 78 f2 3c b2 e5 d0 3c
       -0.05070515 0.04496332 0.029598514 0.025500152
000220 5a cd 3a bd 99 42 0a bd 30 3a 23 bd a0 54 b7 3c
       -0.045605995 -0.03375492 -0.039850414 0.02237922
000230 e4 b5 a0 bd 25 f0 fc 3c 9f b2 09 bc 46 77 98 3d
       -0.07847193 0.030876229 -0.008404403 0.074446246
000240 d8 99 87 bd 0d ae 94 ba b3 8a 81 3d ca db 67 3c
       -0.0662114 -0.0011343375 0.06325283 0.014151523
000250 ac 16 9a 3b 98 d1 2d 3d 93 89 e2 3c b4 48 9a bb
       0.0047024097 0.042436212 0.027653491 -0.004708374
000260 a5 5d ff bb fd 8f 10 3d b5 0e 01 3d 5c 94 af 3a
       -0.0077931457 0.035293568 0.031508166 0.0013395655
000270 94 e5 62 bc 23 ad 47 bd e2 37 85 3c dc 42 9e bb
       -0.013848681 -0.0487491 0.016261999 -0.0048297476
000280 38 aa a8 3d 96 95 a3 3d 6d d4 c1 bb 25 9c 1c bd
       0.08235592 0.07987516 -0.0059152157 -0.03823485
000290 9b ed 95 3d 2d 65 d0 3c e8 64 11 3d 5b 7c 02 bc
       0.0732071 0.02543887 0.035496622 -0.007964219
0002a0 b6 0b 32 bd 60 73 b7 3c be ec 36 bd ef 32 ef bc
       -0.0434682 0.022393882 -0.04465937 -0.029199092
0002b0 ce f9 9e 3d 99 6d d5 bc db df 16 3d b7 b9 8f bd
       0.0776249 -0.026053237 0.03683458 -0.07017844
0002c0 b0 c8 09 bc bd d2 d0 3c 5c 0a df 3c 8b 53 0f bc
       -0.008409664 0.025491113 0.02722662 -0.008747946
0002d0 0b 68 17 3d fd 98 7c bd ce c3 19 bb 43 29 c9 bc
       0.036964457 -0.06166934 -0.0023462656 -0.024555808
0002e0 92 36 41 bd 68 f0 d8 bc e6 ab d3 ba 76 0b 39 bc
       -0.047171183 -0.026481822 -0.0016149252 -0.011294236
0002f0 9c b6 1c 3c 13 b4 0e bd 3c bb 51 bd fe 1f 47 bd
       0.009565022 -0.0348397 -0.05120395 -0.048614495
000300 03 db 72 3d 6a 14 9b bc 30 4d 93 ba 3c 04 3a 3d
       0.059290897 -0.018930633 -0.0011238214 0.045414194
000310 91 e9 79 3d 0a 61 45 3d 1d d3 74 bd 38 fb 17 bd
       0.061013762 0.048188247 -0.059771646 -0.037104815
000320 d4 e0 fe 3c ca d0 74 3d 13 f2 d1 3c c9 70 50 bd
       0.031113066 0.05976943 0.025628125 -0.05088881
000330 90 6e 01 39 2b 31 f1 bc 67 e0 37 bc c8 40 5b bd
       0.00012343586 -0.02944239 -0.011222935 -0.053528577
000340 30 41 7a bd ab 0d a2 bc 05 38 28 3c 50 d7 68 3c
       -0.061097324 -0.019781908 0.010267262 0.014211491
000350 9a 54 ed 3c da 31 b1 bb 41 b1 34 bc 32 36 6f bd
       0.028971005 -0.005407554 -0.011028589 -0.058401294
000360 d5 fa 3b bc 62 e8 14 3d 37 45 d4 bc 92 3c 36 3d
       -0.011473377 0.03635443 -0.02591191 0.044491358
000370 ca 42 fa 3c e0 88 7b 3c d0 8d 07 bd 2c 9e 95 bb
       0.030549426 0.015352458 -0.033094227 -0.0045659747
000380 8e 14 60 3c 4c 45 6d 3d cd 29 4e bc ae c2 cc bb
       0.013676776 0.057927415 -0.012583208 -0.0062487936
000390 0e a5 16 3d 09 3b 4b bc af aa 76 3b 98 0d 26 3d
       0.036778502 -0.012404212 0.0037638356 0.040540308
0003a0 32 3a 90 bd 1e e8 51 3d d5 69 51 bd 7b 02 9a 3c
       -0.0704235 0.051246755 -0.05112632 0.01880001
0003b0 86 fc 43 3d 68 6b 89 bd 7e 6b 26 3d 7f 42 41 3d
       0.047848247 -0.06709939 0.040629856 0.047182556
0003c0 5c 93 5d 3c b4 a3 09 bd 9f 26 78 bd d1 b0 90 3d
       0.013523903 -0.033603385 -0.060583707 0.07064975
0003d0 70 3f 6f bd 4e 7a 8f bd 98 f7 3c 3d 6a 49 c4 bc
       -0.058410108 -0.0700575 0.04613456 -0.023960788
0003e0 0d 01 6c 3d 33 d5 2a bd 46 68 3e 3c db cd 78 bd
       0.05761819 -0.04170723 0.01162154 -0.060743194
0003f0 66 56 37 3d ba d4 1d 3b f1 82 d0 3c 1c 13 cb bd
       0.04476013 0.0024083094 0.025453063 -0.09915754

bias f4 [120]
000000 e7 0a c2 bc 40 54 90 bd 78 47 c0 3c 2f 43 89 3b
       -0.02368684 -0.070473194 0.023471579 0.004188917
000010 17 16 dd 3d b5 d9 32 3c 66 15 53 bd e9 8e 23 3d
       0.10795229 0.010916163 -0.05153408 0.03993121
000020 0d 73 1a 3e 01 05 05 3e f0 61 4d bd 7a 85 49 bc
       0.15082951 0.1299019 -0.05014223 -0.01229989
000030 ba 0f 90 bc e9 e1 ab 3b 37 65 7f 3d ac bb 4e 3d
       -0.017585624 0.0052454364 0.062352385 0.050471947
000040 a2 b8 cc b9 ed 80 b5 3d 25 8d 7c bd ec f9 f9 3d
       -0.00039047474 0.08862481 -0.061658043 0.12205872
000050 de a0 7a 3d 76 6e ee 3b ad d6 91 bc 8a fe 8c bd
       0.06118857 0.0072763516 -0.01780256 -0.06884487
000060 69 46 4e bb 5e e3 5a 3d 85 55 a1 3d 41 bc 62 3d
       -0.0031475073 0.05343949 0.0787764 0.055355314
000070 96 a1 55 3d ae f8 c1 3c 49 e7 8f bc 43 bf 5e bd
       0.052156053 0.02367815 -0.01756634 -0.05438162
000080 68 5c 9e bd fa 76 a1 bc 5f a3 c9 bd ef 6f 5b bd
       -0.07732469 -0.019710053 -0.09845614 -0.053573545
000090 79 e7 c2 3d 53 ec 50 bd 79 59 00 bd d2 ba 28 3d
       0.09516806 -0.051006626 -0.031335328 0.04119379
0000a0 05 75 66 bc 92 d3 fb 3b 70 de f1 3d 0e b5 d2 bd
       -0.014065986 0.0076851333 0.11810005 -0.1028844
0000b0 fb e7 e8 bb 86 8d 99 3d 8e 8b 02 3e 42 01 4f bd
       -0.0071077324 0.074976966 0.12748548 -0.05053831
0000c0 9c 62 4a bd 39 3a 85 3c 37 02 ae bd 26 0d 9c bd
       -0.049410447 0.016263114 -0.08496516 -0.07619695
0000d0 11 e2 0e bc dc 7f 9e 3d 4f 30 37 3e 4a c2 68 bb
       -0.008720891 0.07739231 0.17889522 -0.0035516196
0000e0 f4 75 90 bc db 57 cc bc 9c 15 77 bd 6c 6f fc 3d
       -0.01763437 -0.024944237 -0.060323343 0.123259395
0000f0 33 06 18 3d 19 7a 25 3e e3 19 d6 3d f7 bc c4 3c
       0.037115287 0.16159858 0.10454156 0.024015887
000100 f2 75 c6 bd 94 29 99 3d a0 bd 44 bb ff 53 48 3e
       -0.09690465 0.074786335 -0.0030020252 0.19563292
000110 d0 f6 20 3d 4c c7 0a 3d 88 78 da 3c 84 0f df bd
       0.03929788 0.03388147 0.026668802 -0.10891631
000120 00 be a9 3c 68 97 86 bd dc 07 8e 3d 05 d8 53 3d
       0.020720482 -0.06571847 0.06935093 0.051719684
000130 ab 13 76 bd 50 f3 cd 3c fb 7e 42 3d c0 5e 8e 3d
       -0.06007735 0.025140435 0.04748438 0.06951666
000140 50 c4 5a 3d cb 3d 2c bd 74 32 79 3d 0c af 0f 3c
       0.053409874 -0.042051118 0.06083913 0.008769762
000150 b9 0b f5 bc d2 49 21 3e 13 6b 0d bd 90 b9 f6 3d
       -0.029912816 0.15750816 -0.034525942 0.12047112
000160 0d 62 e7 3c b5 90 ab 3c 0f 3c bb 3d b0 99 c7 bd
       0.028244996 0.020943025 0.09142315 -0.097461104
000170 1c bf a7 bd 6f e5 da 3d bd d1 32 bd 58 46 06 3d
       -0.08190748 0.10688292 -0.043657053 0.03278193
000180 ea 67 de 3d 01 b8 ed 3d 6d 31 8c 3c 73 67 17 bc
       0.10859664 0.116073616 0.017113412 -0.009240973
000190 f2 fd 40 3d 18 86 00 3e 2e 50 c8 bd 02 9f 2d bd
       0.04711718 0.12551153 -0.09780918 -0.04238797
0001a0 22 d1 75 3c 54 13 32 bd cc 10 8d bc 6d 07 28 bd
       0.015003474 -0.043475464 -0.017219923 -0.041022707
0001b0 ea 51 d8 3d 3b 09 f4 bd f4 e7 0e 3e 1c dc db 3c
       0.10562499 -0.11915823 0.1395567 0.026838355
0001c0 e6 f0 b6 3c 2a 16 f4 3d 2b ce 67 bd 44 7c b7 3d
       0.022331666 0.1191829 -0.0565931 0.08959249
0001d0 34 9e d3 3c f0 7a 55 3d bb dc bb 3c 6a 2e 02 3b
       0.025832273 0.052119195 0.0229324 0.001986409

weight f4 [84, 120]
000000 0d e7 b8 bd f2 ec 91 bd 2c 1c aa 3c af b8 84 3d
       -0.090284444 -0.07125272 0.020765387 0.06480538
000010 c5 30 8b bd 78 0c 06 3e 40 5d 3a bb d4 6f 01 be
       -0.067964114 0.13090694 -0.002843693 -0.12640315
000020 cb 89 24 be ca 4a 55 bd e6 00 ba bc eb 93 6d 3d
       -0.16068189 -0.052073278 -0.022705507 0.058002394
000030 d4 3f f8 3d 9d a2 1c bd a3 f4 1b bd 10 93 51 3d
       0.12121549 -0.038241018 -0.0380751 0.05116564
000040 ff d8 39 be 36 a5 91 3d 64 2d 29 be 8c 23 11 3e
       -0.18149184 0.071115896 -0.16521221 0.14173716
000050 a4 ac 5a 3e 74 ff 04 bd 8b 7a 6d bd 9b f3 1b be
       0.2135492 -0.03247018 -0.057978194 -0.15229647
000060 04 ad 63 bd 18 08 22 3e 7b f6 0f bc 7f e2 be bd
       -0.055584922 0.158234 -0.008786793 -0.093205445
000070 36 b9 b7 bc 93 54 8d bd f1 42 31 bd 55 51 cb 3c
       -0.022427183 -0.06900897 -0.04327673 0.024819056
000080 8c 79 85 bd 80 65 48 bd a2 9a 81 3d 43 8e e9 3d
       -0.06517324 -0.048924923 0.06328322 0.114040874
000090 55 93 45 3c da 63 46 bc 27 be ab 3d 13 75 84 bd
       0.0120590525 -0.012108767 0.08385878 -0.06467643
0000a0 c0 29 77 be 1c c5 23 39 84 a7 11 3d 8c 48 90 be
       -0.2413702 0.0001561832 0.035560146 -0.2818035
0000b0 f6 bf f0 3d f4 6d 9d 3d c7 8a f3 3d 8f 66 46 bd
       0.11755364 0.076869875 0.11891704 -0.04843765
0000c0 f7 b3 0e 3e 7f a2 d0 3c b4 a4 79 bc 2e 0b a9 3d
       0.13935839 0.02546811 -0.015237022 0.082540855
0000d0 cd 52 8d bd 92 a2 32 be 9f 40 37 3e ed 25 b4 bc
       -0.069005586 -0.17444828 0.17895745 -0.02199074
0000e0 d4 59 9c bd 67 e0 e1 bd b9 27 5d bd 35 4f 0b 3e
       -0.07634321 -0.110291295 -0.05399296 0.13604434
0000f0 44 ee 5d 3c 3c 2a 4d 3d 31 59 11 bd 09 b7 7f 3c
       0.0135455765 0.050089106 -0.03548545 0.015607604
000100 0d d9 96 bd 0f e8 1c 3e 49 c5 cb bd 74 8b 15 3e
       -0.07365618 0.15322898 -0.099497385 0.14603978
000110 78 1a c0 bd 6b 45 ba 3d 01 34 91 bd 57 50 e4 3d
       -0.093800485 0.09095272 -0.07089997 0.11148136
000120 62 83 22 ba 8c a5 98 3c bf c3 fc bc 01 22 80 bd
       -0.0006199387 0.018633626 -0.030855058 -0.06256486
000130 c0 50 d4 bd f6 bc 92 3d 5d 98 0c 3e 1b 91 84 3d
       -0.10366964 0.07164948 0.13729997 0.06472989
000140 94 01 41 bd 46 8b 2a 3d b0 37 46 bd 16 9a ba 3d
       -0.047120646 0.041636728 -0.04839295 0.09111421
000150 c1 fb f7 3d cf d1 e1 bd 16 8b 6a bc 1b 07 db 3b
       0.12108565 -0.11026346 -0.014315387 0.0066841966
000160 2b 15 7a 3b cb 67 55 bd be f3 92 3d 20 e2 2f 3e
       0.003815959 -0.052100938 0.071753964 0.17176104
000170 b7 2a 98 3d 1d d6 60 be d8 74 9e bd b4 e3 81 3d
       0.07430022 -0.21956678 -0.0773713 0.06342259
000180 1d 91 f9 bd cb 3b 8b 3d ad 8f 94 3d a8 87 fb 3d
       -0.12185881 0.06798514 0.072539665 0.12281734
000190 6d e9 0d b8 e8 30 c4 3d 61 d8 a7 bb f2 5e de bc
       -3.3834414e-05 0.095796406 -0.00512223 -0.027144883
0001a0 3e 53 ba be 61 7c 37 bd 11 c1 5e bd cc 99 c2 3d
       -0.36391634 -0.04479635 -0.05438334 0.09501991
0001b0 14 16 14 be ab dc 85 bd cf 93 31 be 1b 5c 05 3e
       -0.14461547 -0.0653623 -0.17341541 0.13023417
0001c0 f3 81 9a bc 1d b7 93 3d f3 70 1e bc 01 ae 17 3d
       -0.018860793 0.072126605 -0.009670484 0.037031177
0001d0 0c 03 6b 3c 87 7b 44 3e 38 d8 3a be 84 f5 a7 bd
       0.014343988 0.19187747 -0.18246543 -0.08201125
0001e0 c4 09 ec 3b dd f2 0d bd 2f db 6e bc 15 42 1b bc
       0.0072033126 -0.03465544 -0.014578625 -0.009476204
0001f0 2c f6 bc bd 3b 07 a7 3d 7f ea a2 3d 46 e7 a9 bd
       -0.09226641 0.08155676 0.07954883 -0.08296065
000200 af 76 83 bd a2 b8 b1 bd f4 82 84 bc 7c b6 90 3d
       -0.064191215 -0.08677794 -0.016175725 0.07066056
000210 e6 87 03 bd ce 46 dd 3d 91 68 10 bd f9 ad 20 3d
       -0.032112025 0.108045205 -0.035255972 0.039228413
000220 87 20 d8 bc 22 de c8 bc 5c 38 df 3b 4c ac ae bd
       -0.026382698 -0.024519984 0.0068121385 -0.08528957
000230 66 b0 c5 3c 80 ba 86 3c 00 b3 95 bd 8b 22 66 bd
       0.024131965 0.016446352 -0.07309532 -0.056185286
000240 54 77 a8 bd 09 15 a7 3d 3c 9f 20 bc 0d 10 a5 bd
       -0.08225885 0.08158309 -0.009803589 -0.08059702
000250 9c 82 6c 3d e2 83 a6 bc a0 40 4e be c2 ee bf bd
       0.057741746 -0.020326559 -0.2014184 -0.09371711
000260 86 df b4 3d 69 12 8c 3d c7 60 db 3d b7 2e a2 bd
       0.08831696 0.06839449 0.10711818 -0.079190664
000270 f8 7c 66 bd 1d ef 9b bd 14 e6 1c 3d 0a 83 f3 bd
       -0.056271523 -0.076139666 0.038305357 -0.11890228
000280 2c 06 d3 bd 54 d8 41 bd 12 51 01 3c 5b ce 9f bd
       -0.103039116 -0.047325447 0.007892864 -0.07803031
000290 15 10 85 bb 18 a4 e2 3c 89 c3 56 bd 5a 42 72 bc
       -0.004060755 0.027666137 -0.05243257 -0.014786327
0002a0 05 31 75 bd 71 e1 24 bd 75 75 e4 3d b9 97 12 bd
       -0.0598612 -0.04025406 0.11155216 -0.035789225
0002b0 94 99 4b 3d 57 7b 70 bc 5b 79 30 be ba 42 9e bd
       0.04970701 -0.014677844 -0.17233793 -0.07727571
0002c0 9c 72 97 bd 74 35 3e bc fa f8 3f 3d c2 91 05 3e
       -0.07394907 -0.011609424 0.046868302 0.13043883
0002d0 09 3b 84 bd dd 98 8c 3d e3 0f f6 bc 95 1b f4 bd
       -0.064565726 0.06865094 -0.030036872 -0.11919323
0002e0 f0 3e b1 bd 37 55 3d 3d de 5d ac bd aa e5 87 bc
       -0.086545825 0.046223845 -0.08416341 -0.016589005
0002f0 81 5c 25 bc 32 a0 b1 3d b5 62 e5 3c cc 75 24 3d
       -0.010092855 0.08673133 0.028001169 0.040151402
000300 a4 45 b4 3d c4 f9 a0 bd ff 52 ac 3d a4 1f 52 3b
       0.088023454 -0.07860139 0.08414268 0.0032062316
000310 ad 23 fb bd 8a 8d 4c bd 6e b6 10 3c cb b6 2b 3d
       -0.12262664 -0.04993967 0.008832557 0.04192237
000320 f5 9b 8a 3d 11 f9 8a 3c d1 f8 c5 3b d5 3c da bd
       0.06768028 0.016964467 0.006041624 -0.10656134
000330 c8 24 c3 bd 1e d9 e8 bd c1 77 ec bc 11 e9 2a bd
       -0.095285 -0.11369537 -0.028865697 -0.041726176
000340 15 f8 17 bc a1 a6 a1 3d 5b af 7b bd 29 ae 0a 3c
       -0.009275456 0.0789311 -0.06144653 0.008464375
000350 14 d9 8d 3c d9 20 25 be 52 92 67 bd 89 0f bf 3c
       0.017315425 -0.16125812 -0.056536026 0.023322837
000360 e5 f1 aa bd d7 f6 e4 3d 21 43 83 3d 49 f7 4a bd
       -0.08346919 0.111798935 0.06409288 -0.049552236
000370 97 98 8e 3d 35 99 05 3e d1 a8 eb 3c 97 99 64 3d
       0.06962698 0.13046725 0.028767021 0.055810537
000380 d6 63 0c 3d d2 86 dd 3d f2 11 e1 bd dc 4f ad 3d
       0.0342749 0.108167306 -0.10989751 0.084624976
000390 dc 3a 57 bd 0d aa 00 be 8e f2 0e be 19 55 92 bc
       -0.052546367 -0.12564869 -0.13959715 -0.017862843
0003a0 20 6b cc 3d 01 6d f8 3d c0 6a ba bd e2 fb a9 bd
       0.0998137 0.12130166 -0.09102392 -0.08299996
0003b0 83 c8 65 3d 56 8c 2b 3e a7 e9 ae 3d 43 8f 15 bd
       0.056099426 0.16752753 0.085406594 -0.03651358
0003c0 49 3d ba 3d ac 2f 14 bd 83 f0 6b bd 20 dd cf bc
       0.090937205 -0.036178276 -0.057602417 -0.025373995
0003d0 f9 44 71 3d 77 7a e9 bd 68 43 1a bd b4 39 8d bc
       0.058903668 -0.114003114 -0.03766194 -0.017239429
0003e0 18 19 25 3d 0f 7d 76 bd e4 fe 6a bc 96 e2 d5 b9
       0.040307134 -0.06017786 -0.014342997 -0.00040795346
0003f0 23 1d c7 bd 15 34 1d bd 17 46 10 be f9 2a a0 3d
       -0.09722354 -0.038379747 -0.14089237 0.078206964

bias f4 [84]
000000 d4 d8 43 3d f8 9a 94 ba 6c 33 25 3d ab 61 4b bd
       0.047814205 -0.0011337688 0.040332243 -0.04965369
000010 46 79 2b 3e 36 12 2c bb 78 7a 8c bd 27 4c f6 bc
       0.16745481 -0.0026255972 -0.068592966 -0.03006561
000020 1d 8f 35 3b 10 64 b2 3d 83 d0 6e bd 1e c3 73 3c
       0.002770371 0.08710492 -0.05830432 0.0148780625
000030 7a f9 c9 3a aa d5 d9 bc 41 3a 31 bb 88 d3 42 3e
       0.0015409433 -0.02659114 -0.0027042779 0.19026005
000040 a0 a1 61 3d 29 84 b7 3c 3f c2 2f be 21 99 cf bc
       0.05508578 0.022401886 -0.17163943 -0.025341572
000050 27 b5 98 3c 96 bf 90 3d 0d cd ec bd 12 59 13 3d
       0.018641068 0.07067792 -0.11562548 0.035973616
000060 50 c2 ba 3c 35 20 e1 bd b0 71 48 3e a5 59 ea bc
       0.022797734 -0.10992471 0.19574618 -0.028607199
000070 8f 71 44 3d 59 98 72 bb 62 ce 50 3e 2a e6 81 3e
       0.04795986 -0.0037017076 0.20391229 0.25370914
000080 50 9a cf 3d de e1 3e bc 81 e6 03 3e d0 8d 2f 3e
       0.10136855 -0.011650531 0.12880899 0.17143941
000090 5f df b6 bc 8e 6e 42 3e 1c 0b b3 bd 05 fa a8 bd
       -0.022323309 0.18987486 -0.08742353 -0.082508124
0000a0 9f c2 e4 3d f1 5d d0 3d a4 d9 32 3e 5e 65 85 3d
       0.111699335 0.10174168 0.17465836 0.06513475
0000b0 8f c9 5a 3e ed 0b 37 3e ab 22 01 be 90 e0 e9 bd
       0.21365951 0.17875643 -0.12610881 -0.11419785
0000c0 e4 65 15 bd 72 5f 92 3d 77 e3 21 3d 35 80 b7 bc
       -0.036474124 0.07147111 0.039523568 -0.022400001
0000d0 63 fa 36 3e aa d3 47 bd 5d 9c 1e bc 70 5d 74 3c
       0.17868952 -0.048785843 -0.009680835 0.014914855
0000e0 57 42 ff 3d d8 a8 82 3e 26 50 02 3b 4c 24 38 3c
       0.12463825 0.25519443 0.0019884198 0.011239123
0000f0 50 38 0b bd 06 28 bc bc a3 3c ab 3d 75 5d 73 bd
       -0.03398925 -0.022968303 0.08361175 -0.0594153
000100 33 ad da bd 54 69 f2 3d ca 6a 3c 3d 5d ab e4 3c
       -0.106775664 0.11836496 0.04600028 0.027913744
000110 6d 02 22 3e 89 b9 81 3d 94 49 d2 3d 80 8e 79 3d
       0.15821238 0.06334216 0.1026794 0.060926914
000120 1f ff 98 bd b8 ff 65 3e 09 b6 49 3e 81 ed 00 3e
       -0.074705355 0.2246083 0.19698347 0.125906
000130 22 0e bf 3d 8e 07 72 3b d4 7c 68 3e 30 b8 27 3d
       0.093288675 0.0036930772 0.22703868 0.04094714
000140 47 6c 89 3d 9f cf 3a 3e 53 03 80 3c 7b 4b c5 3c
       0.067101054 0.18243264 0.015626585 0.024083843

weight f4 [10, 84]
000000 52 50 6c be e5 68 62 be 56 8f cb bd c6 de 3c 3d
       -0.23077515 -0.22110327 -0.099394485 0.04611089
000010 f0 f9 b0 3e 1a 28 30 be 45 b4 e4 bd d1 56 1a 3e
       0.34565687 -0.17202798 -0.11167196 0.1507218
000020 91 8d b3 3e 0f 1b 43 3e 6f 6d 0b 3e 74 50 53 3e
       0.35068944 0.19053291 0.13615964 0.20636159
000030 fe 01 c5 bd c3 1e c3 bc 54 59 e0 bd 1e c8 ee bc
       -0.096195206 -0.02381838 -0.10954538 -0.029148158
000040 45 52 2f bd 9a c4 a3 3e fe 7d 2e 3e 78 ad bf bc
       -0.042803068 0.31985933 0.1704025 -0.023398146
000050 87 10 3b 3e 41 a1 ad be d2 75 cb 3d 00 01 6f be
       0.18268023 -0.3391209 0.09934582 -0.23340225
000060 e0 84 2d be 8a ee 03 3e 59 1f a9 bd bd 0c 7d be
       -0.16945219 0.12883964 -0.08257932 -0.2471189
000070 b7 b3 17 3f 0d ee 92 bd fa f3 a4 3e 13 21 4c 3e
       0.592586 -0.07174311 0.3221739 0.19934492
000080 d2 34 c5 3e e4 ab 07 3e 2d 7c 53 be ba 26 c1 3d
       0.3851686 0.13249165 -0.20652838 0.09431215
000090 cf 8b d5 3d 66 26 c3 3d dd a0 1a be 71 c2 d9 3c
       0.10427057 0.09528808 -0.15100427 0.026581975
0000a0 b8 a4 37 3c 78 32 25 3e 42 99 6b 3e 24 f3 c5 3b
       0.011208706 0.16132534 0.23007682 0.0060409475
0000b0 43 f8 59 3e 25 e5 23 be dc 8b 6d 3e 25 b9 8d 3e
       0.2128611 -0.1600538 0.23197883 0.27680317
0000c0 02 2f e7 3d ec 53 97 3e 50 12 a7 3d 33 e2 4e bd
       0.11288263 0.29556215 0.0815779 -0.05050869
0000d0 87 4d b5 3e 52 af 92 bd b3 fb 95 3e 48 df e4 3a
       0.3541071 -0.07162346 0.29293594 0.0017461563
0000e0 bf 23 f7 3b c3 e4 0d 3e 18 da 5b be a9 22 a1 bc
       0.007542103 0.13856797 -0.21469915 -0.019669848
0000f0 e6 f9 e0 3d fb 5b 08 be 55 94 38 3d 26 e0 a6 bc
       0.10985164 -0.13316338 0.045063335 -0.020370554
000100 75 fe 87 3e 84 81 8e bc e6 61 ca bd 20 da b8 bd
       0.26561323 -0.017395742 -0.09881954 -0.09025979
000110 3c e9 c5 bd 0a a8 7d bc ab 0d b8 be b3 a0 0a be
       -0.096636266 -0.015481958 -0.35947928 -0.13537864
000120 5f 9e 1c be 7a 3a c6 3d d4 ca 86 3e 0e ea f1 3d
       -0.15294789 0.09679122 0.2632662 0.118122205
000130 42 68 b3 3e d9 03 53 be bc e2 c1 3e 84 a5 9e bd
       0.3504048 -0.20606937 0.37868297 -0.07746413
000140 de 32 75 3e ea bb bf bd 0a 47 df bd fc 77 28 be
       0.23945186 -0.09362014 -0.109022215 -0.1645202
000150 ed 19 2d 3e ec c3 90 bd d3 bf a8 bd 7b 73 4a 3d
       0.16904421 -0.07068619 -0.082397126 0.049426537
000160 2e 73 14 3e 2d ff 0d be fc 13 94 bd f7 43 1b 3d
       0.14497063 -0.13866873 -0.07230374 0.037906613
000170 a1 45 d8 bd 47 bd 9d 3d 7c 85 6b 3b 74 39 4e bd
       -0.10560156 0.077021174 0.0035937717 -0.05034776
000180 14 8c 2a 3c e1 3d c4 bd a8 77 97 3e 04 ff d2 bc
       0.010409374 -0.09582115 0.29583478 -0.025756367
000190 78 09 4f be 7a 65 56 be 47 61 bd 3c 67 a7 9b be
       -0.20218456 -0.20937148 0.023117675 -0.30401155
0001a0 ee 22 95 bd 96 c6 86 bd 92 0e 3b 3f 6e e3 06 be
       -0.07282053 -0.06580846 0.7306911 -0.13172695
0001b0 0e e1 22 3e e7 ab 94 3d 50 6e 98 bd 96 02 2f be
       0.15906164 0.0725935 -0.074429154 -0.1709083
0001c0 c5 0e 35 be be a4 dc 3d a6 aa 0c be 90 3d dd 3c
       -0.17681415 0.107736096 -0.13736972 0.027006894
0001d0 2a a7 3e 3e 17 2e c7 3c 37 9f 05 3f 5e 1d 7d bb
       0.18618456 0.02431397 0.5219607 -0.003862224
0001e0 5c 9d 88 be b0 7b 6b be 19 c7 64 bd 4a 7c fc 3c
       -0.26682556 -0.22996402 -0.055853937 0.030820984
0001f0 51 e7 78 be 9f 62 21 be 74 55 12 be e2 b7 0c 3d
       -0.2430699 -0.15760277 -0.1429041 0.03435505
000200 8e 35 8e be 67 e9 4a be 3b 0a 25 be 24 06 a3 3e
       -0.27775234 -0.19815598 -0.16117184 0.31840622
000210 bc 13 3a bd 83 82 4f be e5 b2 79 3d d4 0c b2 3c
       -0.045428976 -0.2026463 0.060961623 0.021734633
000220 d5 a9 4e be 9e cb 10 3d cc f4 ed 3d 19 7f 92 3d
       -0.20181973 0.035350434 0.11618957 0.07153148
000230 6d c1 c8 3d 38 5d 15 be 4d 0b 04 3e 2e b9 43 3b
       0.09802518 -0.14586341 0.12894936 0.0029865014
000240 d7 e1 a1 3d c8 1b da ba 35 68 5a be 38 8c 22 bc
       0.07904404 -0.001664036 -0.21328814 -0.009921126
000250 e0 69 85 be ec 68 7e 3d ad 8e be 3c 86 0a b9 bc
       -0.2605734 0.06211178 0.023261392 -0.022588026
000260 c2 10 a8 bd f0 8b c5 bd 1f 71 0b 3e 0d 62 f7 bd
       -0.08206321 -0.096458316 0.13617371 -0.120792486
000270 34 b4 4d 3e 85 81 00 bf 02 47 cc bd 5f cb 53 bd
       0.20088273 -0.5019763 -0.09974481 -0.05170762
000280 4d e8 b3 be 6d a0 a9 be 3e ae aa be 69 a5 43 be
       -0.3513817 -0.33130208 -0.3333606 -0.19106068
000290 e7 49 f7 bc e0 79 ae bd a0 52 56 bd c1 4f d9 3e
       -0.030186607 -0.085193396 -0.05232489 0.4244366
0002a0 00 54 12 be f2 47 02 be 0e 3a 0f 3e 96 87 13 bd
       -0.14289856 -0.12722757 0.1398699 -0.036017977
0002b0 bf c2 02 bd 20 58 33 be f5 e4 34 3d 2c e2 50 bd
       -0.031924006 -0.17514086 0.044163663 -0.050996944
0002c0 f9 42 27 be d1 4f a5 be 08 b6 c3 bc 35 d8 4c 3e
       -0.16334142 -0.32287458 -0.02389051 0.20004351
0002d0 77 60 ac be ac 8a 9e 3d 73 f1 24 bc 0f ed 83 be
       -0.33667347 0.07741293 -0.010067332 -0.257668
0002e0 88 08 ac bd 9c 0f 02 bf 74 1b 85 3e 9e 6a 53 be
       -0.08400065 -0.5080507 0.25997508 -0.2064614
0002f0 c0 79 de bd 51 93 00 be c6 08 b9 bd a2 bd dd 3e
       -0.10863066 -0.12556197 -0.090348765 0.4330874
000300 13 ee ff bd bb 34 13 be 90 48 d3 3e 00 d6 ba 3d
       -0.12496581 -0.14375584 0.41266298 0.091228485
000310 93 dd 1c be 18 95 31 bd 52 af d7 3e 97 c3 93 be
       -0.15318899 -0.043355078 0.42125946 -0.2886016
000320 d2 97 36 3c 42 db d4 bc 93 22 f0 3d fa f6 84 be
       0.011144595 -0.025983457 0.117253445 -0.25969678
000330 aa b1 89 be 70 15 94 3e 5a af af 3d 7e 5a 46 3d
       -0.2689336 0.28922606 0.085783675 0.048426144
000340 79 a3 73 3e b2 48 27 3e b8 6f 95 3e 14 00 77 be
       0.23792829 0.16336325 0.29186797 -0.24121124
000350 60 bc 89 3e f3 9d a3 be de 68 7b 3e 4a fa 7f be
       0.2690153 -0.31956443 0.24551722 -0.24997821
000360 c1 2a ca 3d 55 46 8c 3e c9 21 c5 bd f5 1e b0 bb
       0.09871436 0.2739741 -0.09625585 -0.005374784
000370 08 7b 7f be a0 38 65 3d 2d de 8b bd 05 0b ef bd
       -0.24949276 0.055962205 -0.06829486 -0.11672024
000380 06 8f 3f 3e d4 2c 8d 3e f9 7f 8d 3d 50 f1 ce 3e
       0.18706903 0.27573264 0.069091745 0.40418482
000390 57 76 48 bc 40 ef eb 3c b6 fc ca bd fc 8b ff 3d
       -0.012235246 0.028800607 -0.09911482 0.12477872
0003a0 8a 50 a7 be c3 5d f4 3b 2c ef 87 3e 40 15 fe 3c
       -0.32678634 0.0074574663 0.2654966 0.031015992
0003b0 f9 e7 f6 bd 11 4b ff 3d ab 5d 20 3e 1c f2 06 be
       -0.12055964 0.1246549 0.15660731 -0.13178295
0003c0 14 f6 0b 3e e0 6f 01 3f 6f 15 19 bc ca db bf 3e
       0.1366809 0.5056133 -0.009343489 0.37472373
0003d0 0d 6f d0 3e 4e ee 4a 3e da 4e 92 3e d3 a8 dd bd
       0.40709725 0.19817469 0.28575784 -0.10823216
0003e0 d7 70 b3 3d 5f 21 3d bd 00 01 02 3d cc 30 8e bd
       0.08761757 -0.046174403 0.031739235 -0.06942901
0003f0 d9 4c 8e 3e 63 e1 18 3e c7 f7 bb 3d 20 69 a7 3d
       0.27793005 0.14929728 0.09178119 0.08174348

bias f4 [10]
000000 7e 06 fc bd b2 12 92 be ce ce 3c 3e 68 00 5c 3e
       -0.12305926 -0.28529888 0.18438265 0.2148453
000010 2e 8f cb bd c8 53 4e be 26 c7 c4 3e 4e b9 dd bc
       -0.09939419 -0.20149148 0.38433188 -0.0270659
000020 6a be 88 3e 07 e8 8b be
       0.26707774 -0.2732546
