Mnist_LeNet(1).pt (torch, 190170 bytes, 10 tensors)

weight f4 [6, 1, 5, 5]
000000 5b bc 36 be 8a b2 07 be 14 dd 5d bd 5a 69 4c be
       -0.1784529 -0.13251701 -0.054165915 -0.19962063
000010 de 54 9b 3d 10 98 d2 bd fe 0f 25 be 4f 8d 46 be
       0.075845465 -0.1028291 -0.16119382 -0.19389842
000020 c9 fc 13 3e 60 f1 ed bb e9 d5 3b 3e 04 3e 62 3d
       0.14451899 -0.00726144 0.18343319 0.055234924
000030 48 2a 01 3d 99 ce 0e 3e 0a f2 d0 3d 84 0d 77 3d
       0.031534463 0.13945998 0.10202415 0.060315624
000040 93 60 f0 bd 64 22 56 3d 50 84 43 3c 00 98 c6 bb
       -0.1173717 0.05227889 0.011933401 -0.0060606003
000050 ef 45 4a be 88 ec 10 bd a8 1c f2 3c 12 d5 a2 3d
       -0.1975324 -0.035381824 0.02955468 0.07950796
000060 01 17 42 3e bf 0d 2a 3e 32 1a f8 3d c6 2b 9d 3d
       0.18954088 0.16606806 0.12114371 0.07674365
000070 20 58 1e 3c 6c be 5c 3d b6 f5 e0 3d 07 18 e0 bd
       0.009664565 0.053892538 0.10984366 -0.10942083
000080 c2 20 f7 3d 7c be 8a bd 60 b1 5a bd 3a a2 ce 3d
       0.12066795 -0.06774613 -0.053391814 0.10089536
000090 ad fb 18 3e c4 d0 04 be c0 fb da 3c 45 1d 1e be
       0.14939757 -0.12970263 0.026731372 -0.15440853
0000a0 79 f3 30 3e ad 31 e4 bd 0c c4 57 3d 71 6f 18 3e
       0.17280377 -0.111422874 0.0526772 0.14886262
0000b0 28 f0 45 be a5 ad 34 3e 74 57 91 bd 00 77 89 ba
       -0.19329894 0.17644365 -0.070967585 -0.0010487735
0000c0 83 98 d2 bd 1d 05 ad bd ba bc fe bd 88 d2 1e bd
       -0.102829956 -0.08448241 -0.124383405 -0.038774997
0000d0 91 2d 4c 3e aa 44 c6 3d 4a cf 89 bd 2c 89 67 3d
       0.19939257 0.096810654 -0.067289904 0.0565273
0000e0 20 cf 13 bc f6 2e 27 be c8 fa 36 3d b0 60 75 3c
       -0.00902155 -0.16326508 0.044672757 0.014976665
0000f0 09 3b 03 3e 03 56 1e 3e b0 a2 43 3c 40 cd bc 3b
       0.12815489 0.15462498 0.011940643 0.0057617724
000100 20 70 57 3c 8b 4f 1a 3e b2 6c aa 3d 80 1e 2b 3d
       0.013149291 0.15069406 0.08321513 0.041777134
000110 ba a3 95 3d 46 ad b5 3d 4f c1 49 3e ea 00 3a be
       0.07306619 0.0887094 0.19702648 -0.18164411
000120 5a de 93 bd b6 a6 8e bd fa b7 d4 3d 90 57 f0 bd
       -0.072201446 -0.06965391 0.10386653 -0.11735451
000130 e8 98 3e bd d3 57 f3 bd 74 34 90 bd 90 66 9f 3c
       -0.04653254 -0.118819855 -0.07041255 0.019458085
000140 e5 f3 38 be 2a 1a e7 bd e3 1a 0d 3e 69 c9 13 3e
       -0.18061788 -0.11284287 0.13779788 0.144323
000150 b6 c2 20 be a9 22 0e 3e 83 04 bf bd 53 d0 16 be
       -0.15699276 0.1388041 -0.093270324 -0.14727907
000160 54 e5 11 3d 06 da 9d 3d fd d8 09 3e 43 af af bd
       0.035619095 0.077076 0.1346168 -0.085783504
000170 21 bc 24 3e e0 68 03 bd da 19 93 bd 04 b4 5f 3d
       0.1608739 -0.03208244 -0.07182665 0.054615036
000180 08 ba 31 3d 60 4b 33 3d f9 60 4b 3e 60 06 c1 bd
       0.043390304 0.043773055 0.19861211 -0.09425044
000190 60 17 1a 3c 80 52 56 3c d0 d5 16 3c 89 62 40 3e
       0.009404987 0.013081193 0.00920625 0.18787588
0001a0 e3 ff f6 bd 38 20 2b bd 02 46 b8 3d 21 63 42 3e
       -0.12060525 -0.041778773 0.08997728 0.18983127
0001b0 db d1 45 be 40 e1 1b be 66 ad ab 3d 72 ff 42 be
       -0.19318335 -0.15222645 0.083826825 -0.19042757
0001c0 d4 7d 70 bd e9 b6 05 3e d5 59 0f be 93 eb d6 bd
       -0.05871375 0.13058056 -0.13999112 -0.10494151
0001d0 c0 a1 2f 3d 20 32 5f bc 52 d0 bd 3d e3 32 f5 bd
       0.042878866 -0.013622791 0.092682496 -0.119725965
0001e0 b0 e7 16 3c e8 87 b6 bc 64 43 73 3d a8 bb 06 bd
       0.009210512 -0.022281602 0.05939044 -0.032893807
0001f0 dd 0a ec bd 9a 6a d8 3d 17 c9 bc bd 8e 29 2c be
       -0.115255095 0.10567208 -0.09218042 -0.16812727
000200 a8 e0 2d be 31 1f 25 3e fa 59 97 bd 92 31 b7 3d
       -0.16980231 0.1612518 -0.073902085 0.08945002
000210 60 7e a1 bb 7a 3c ed bd 53 92 d4 bd 33 a4 20 3e
       -0.004928395 -0.115838006 -0.10379472 0.15687637
000220 e9 74 21 3e 4a 08 b6 bd 4a c9 d8 3d 10 8d fc bc
       0.15767254 -0.088883 0.10585268 -0.030828983
000230 19 63 16 3e dc 48 7c 3d 88 53 43 3d 34 5b 0a bd
       0.1468624 0.06159292 0.047687083 -0.033778384
000240 70 08 b5 bd 40 a4 2a be c0 eb aa 3c f7 33 24 3e
       -0.088395 -0.16664219 0.020864367 0.16035448
000250 62 42 bb 3d 19 2b 1a 3e
       0.09143521 0.15055503

bias f4 [6]
000000 80 95 28 bd 50 fa 44 3c fd f0 ff bd d7 eb 44 be
       -0.0411582 0.01202257 -0.12497137 -0.19230591
000010 39 22 22 3e a7 dc 2e 3e
       0.15833367 0.1707636

weight f4 [16, 6, 5, 5]
000000 3c 5d 2c 3d 0c 9e 8f 3c e8 37 62 bc cc 26 58 3d
       0.042081103 0.017531417 -0.013807274 0.052771375
000010 84 10 0b 3d 98 d8 55 3c 34 79 45 bd 2a c0 24 3d
       0.033951297 0.013052128 -0.04821129 0.040222324
000020 60 9f 3e bc 10 98 9a bb a4 7f 91 3d dc 78 8f 3c
       -0.011634678 -0.0047178343 0.07104424 0.017513685
000030 d2 f1 f4 bc 60 02 53 3b 64 ed fc 3c 6c 78 61 bd
       -0.029900465 0.003219746 0.030874915 -0.055046484
000040 28 83 d8 3c 26 b1 0e 3d dc 0f 1f bd 60 fb cd bb
       0.026429728 0.03483691 -0.038833484 -0.0062860698
000050 72 00 11 bd 58 0b 0f 3c f0 46 e0 bc 14 8e 74 3d
       -0.035400815 0.008730732 -0.027377576 0.05970581
000060 06 22 91 bd 18 aa 67 3d 54 9f 62 3d d6 15 f4 bc
       -0.070865676 0.0565587 0.05532773 -0.029795568
000070 f0 ae 6b 3d 48 c3 51 3d 88 2d 84 bd 96 df 24 3d
       0.05753988 0.051211625 -0.06453997 0.04025229
000080 c0 6b f8 3c 1a 39 17 3d d0 bc c6 3b d8 cc 9c 3d
       0.030324817 0.03691969 0.0060649887 0.07656258
000090 fa 74 e2 bc 18 b4 68 3c 80 7b 7d 3b 61 09 a4 bd
       -0.02764367 0.014203094 0.0038678348 -0.080096014
0000a0 d6 a7 38 bd 84 fd a1 3c d4 86 f0 bc 30 59 4a bc
       -0.045081936 0.019774206 -0.029361166 -0.0123503655
0000b0 04 ff a0 3d 74 bd 52 bd 10 ea 4b 3d 88 78 6b 3d
       0.0786114 -0.051450208 0.049783766 0.057487994
0000c0 d0 5b 22 bd d4 dd 8f 3d c4 3d 48 3d fd d9 92 bd
       -0.03963834 0.07024732 0.04888703 -0.07170484
0000d0 b0 ae ec bb a0 ac 14 3c d8 4e 5d bd b0 f9 96 3d
       -0.007222973 0.00907436 -0.05403027 0.07371843
0000e0 e0 7b 35 bc 98 30 a6 3d 27 83 70 bd e0 96 b3 bb
       -0.011076897 0.08114737 -0.058718827 -0.005480632
0000f0 70 41 9f bd 82 e7 a1 3d 4c c3 58 3d 88 a9 91 3d
       -0.07776153 0.07905485 0.052920625 0.07112414
000100 c4 8d 3a bd 2b db 20 bd 90 50 ab 3b d0 80 e9 3c
       -0.045545354 -0.039271515 0.0052281097 0.028503805
000110 00 33 ef bc b1 e1 36 bd 5a fc 9c bc 0e 9e 05 3d
       -0.029199123 -0.04464883 -0.0191633 0.032621436
000120 80 45 be bb ca 04 62 bd 3e fc 46 bd 26 56 8b 3d
       -0.005806625 -0.05518035 -0.0485804 0.06803541
000130 e0 44 1f bb 17 65 98 bd 10 0b d4 bc 48 79 81 3d
       -0.0024302527 -0.07441156 -0.025884181 0.06321961
000140 44 0e 99 bc bc 75 1c 3d fc 04 73 3d 02 43 63 bd
       -0.01868356 0.038198218 0.059330925 -0.055483826
000150 dc 27 88 3c f0 fa ce 3c 14 20 38 3d 85 4e 5f bd
       0.016620569 0.02526614 0.044952467 -0.05451824
000160 d0 7a 6e 3d 78 4f 39 3d be e4 0b 3d 88 d2 87 bc
       0.058222592 0.045241803 0.034153692 -0.016579881
000170 90 73 86 bd 76 b9 18 bd a0 a2 57 bb 45 40 88 bd
       -0.065650105 -0.037286244 -0.0032903329 -0.066528834
000180 78 32 57 3d d4 fa 93 3d a6 c5 18 3d c8 4e d2 3c
       0.052538365 0.07225576 0.037297867 0.025672331
000190 40 ff a6 3d 40 b7 2f bc cc 3f 8e 3c 5c ae 2f 3d
       0.08154154 -0.010724843 0.017364405 0.04289089
0001a0 34 7b a9 bc 46 ec 15 3d 3c 1b 8b 3d d7 d9 96 bd
       -0.02068863 0.03660228 0.06792304 -0.073657684
0001b0 80 23 74 bb 68 bf 22 3d f0 63 12 bd 96 c2 68 bd
       -0.0037252605 0.03973332 -0.03573984 -0.056826197
0001c0 fd f4 93 bd 46 f9 0d bd e8 c7 f7 3c ac 2a a9 bc
       -0.07224462 -0.034661554 0.03024669 -0.02065023
0001d0 d8 7e 8b bd 70 70 97 bd 9f 7c 3c bd 90 1e a3 3c
       -0.06811303 -0.073944926 -0.046017285 0.019912034
0001e0 c4 00 a4 3c ee 1f 0f bd 30 f6 9b 3b 6e f9 9f bc
       0.020019896 -0.03494256 0.0047595724 -0.019528117
0001f0 5e f0 47 bd 80 47 c8 ba 78 85 3e 3d fc e9 51 3d
       -0.048813216 -0.0015280098 0.046514004 0.051248536
000200 90 76 1f 3d 04 77 69 3d 39 4a 40 bd 5a c7 07 3d
       0.03893143 0.056998268 -0.046945784 0.0331491
000210 6c 17 33 3d cd be 64 bd f8 02 49 3d 10 1d 00 bc
       0.04372351 -0.055846024 0.049075097 -0.007819429
000220 87 41 45 bd 24 4a 8b 3c fe f5 ed bc c0 3f 8e ba
       -0.048158195 0.017003126 -0.029047962 -0.0010852739
000230 20 a9 57 bd f0 ce 8f 3d 1c 84 47 bd 7c 2e a1 3d
       -0.052651525 0.07021892 -0.048709974 0.07870194
000240 56 ea 06 3d 08 78 74 3d 38 9e 5c 3d ec 86 fc 3c
       0.032938324 0.059684783 0.053861827 0.030826055
000250 20 a0 6b 3b c4 a1 54 bd 78 05 a1 3d 86 b0 61 bd
       0.0035953596 -0.051912084 0.07862371 -0.055099986
000260 70 38 7f 3c 4a e0 08 3d ec 53 d8 3c 64 29 d7 3c
       0.015577421 0.033417024 0.026407205 0.026264854
000270 a0 f2 0f bd 90 e8 3c bd 46 22 0b 3d c0 e9 de bb
       -0.035143495 -0.046120226 0.033968233 -0.0068027675
000280 ec c8 a6 3d 40 5d ed ba 18 c1 25 3c ac 02 97 bc
       0.081437916 -0.0018109456 0.010116838 -0.018433891
000290 48 c2 11 bd a0 de 94 bc 70 b5 b5 3b f4 e8 fe 3c
       -0.03558567 -0.018172562 0.0055453107 0.03111694
0002a0 b8 8a 86 3d dc fe 93 3d b8 7d 50 bc 30 d5 45 3d
       0.06569427 0.07226345 -0.012725286 0.048299015
0002b0 70 fc 2a 3d c8 98 5d 3d d4 2c 7d 3d e0 69 83 bd
       0.04174465 0.05410078 0.06181033 -0.064166784
0002c0 e8 38 1d bc b8 00 8d 3c d8 90 17 bc e3 fc 4b bd
       -0.009596087 0.017212257 -0.009250842 -0.04980172
0002d0 a8 fb fb 3c 00 f7 cd bb 7c 5d a5 3d 24 3e ed 3c
       0.030759647 -0.006285548 0.08074471 0.028960295
0002e0 6f 03 87 bd 83 59 91 bd 30 bb 02 bc 88 94 41 3d
       -0.06592452 -0.07097151 -0.007979199 0.04726079
0002f0 08 13 c3 3c 4c 2e fb 3c 50 75 89 3d e0 b0 ba 3b
       0.023812786 0.030661725 0.06711829 0.0056973547
000300 96 8c d3 bc ca e3 84 3d 54 8f f9 3c df ec 49 bd
       -0.025823873 0.0648876 0.030463852 -0.049298164
000310 e0 9c 7b 3c 10 c7 97 3b 09 e4 8d bd c2 89 83 3d
       0.015357226 0.0046318844 -0.0692826 0.064227596
000320 80 cc 69 bc 25 7f 2b bd 5c 2a 21 bd ee 32 91 bd
       -0.014269948 -0.0418693 -0.039347038 -0.07089792
000330 94 e4 eb bc 9e cc 26 3d 58 28 61 3d 81 72 3e bd
       -0.028795518 0.040722482 0.054970115 -0.04649592
000340 20 59 d3 3b 94 1e 9c 3d 80 0d ea ba 82 ea 05 bd
       0.0064498335 0.0762302 -0.0017856807 -0.032694347
000350 bc ca 1e bd 60 2b ce bb 2f e1 44 bd 70 bc 95 3c
       -0.03876756 -0.006291792 -0.048066314 0.01827833
000360 c6 3f 14 3d c0 59 c7 bc 30 e6 59 3c e8 33 5a 3c
       0.03619363 -0.024334788 0.01329951 0.0133180395
000370 06 69 3a bd 24 c1 f9 3c b8 e9 8b 3d 37 71 a0 bd
       -0.045510314 0.030487604 0.06831688 -0.07834094
000380 1c 11 02 3d d0 df 56 3c 88 a0 77 bd 70 a8 59 3c
       0.031754598 0.0131148845 -0.06045583 0.013284788
000390 80 f7 50 3a 50 a8 4c 3c 20 a0 9a 3d 96 9c 83 3d
       0.00079714507 0.012491301 0.07550073 0.06426351
0003a0 bc 20 89 3d 64 55 16 3d b4 f2 84 3c 9a aa b0 bc
       0.06695697 0.03670253 0.016229011 -0.021565724
0003b0 48 82 6b 3c 38 76 bb 3c 68 85 41 3c 2c 17 52 bd
       0.014374323 0.02288352 0.011811592 -0.05129163
0003c0 ee 4d 8f 3d 00 48 e5 3a 3c 52 4e 3d 5c b0 5f 3d
       0.06997286 0.0017492771 0.050371394 0.05461155
0003d0 c8 97 03 3d fa 09 84 3d 52 7c 6b bd 28 22 e7 3c
       0.03212717 0.064472154 -0.057491608 0.02821453
0003e0 a0 4a 83 3d 0c 0d a0 bc 77 a7 01 bd cc 2e 8e bd
       0.06410718 -0.019537471 -0.031653848 -0.069425195
0003f0 40 e2 88 3b 2a c0 97 3d c0 a3 9f 3d b2 19 89 3d
       0.0041773617 0.07409699 0.07794905 0.06694354

bias f4 [16]
000000 e8 a7 eb 3c f4 fa 76 3d e0 85 43 bb c9 d2 2b bd
       0.028766587 0.06029792 -0.0029834434 -0.041949067
000010 78 ea 52 bc ca ae a8 bc c0 4e 35 3d 9c f9 be bc
       -0.0128732845 -0.020591158 0.044264555 -0.023312382
000020 9c f1 85 3d 78 e2 7f 3d fc 0f e6 3c d4 9c 3a bd
       0.06540224 0.062471837 0.028083794 -0.04555972
000030 11 c1 92 bd 8c 97 5e 3d a6 af 88 3d 4e b1 44 bd
       -0.07165731 0.054343745 0.06674127 -0.048020653

weight f4 [120, 256]
000000 90 a9 2d bd 78 58 80 3c a0 3f 03 bb 20 1b 0d 3c
       -0.042398036 0.015667185 -0.0020026937 0.008612424
000010 74 4e f7 bc 84 8e 50 bd fc 32 06 bd 60 cd 5e bb
       -0.030188777 -0.050917163 -0.032763466 -0.0033996925
000020 1c c6 02 bd e4 d7 ee bc 00 94 9d 3b 80 22 05 3b
       -0.031927213 -0.029155679 0.0048089027 0.0020314753
000030 ba 37 50 3d c4 54 05 bd 62 67 3a 3d 00 f3 a8 3a
       0.050834395 -0.032551542 0.04550875 0.0012889802
000040 7e 26 6e bd ac db b5 3c 8e af 01 bd 56 15 4d bd
       -0.058142178 0.022199474 -0.031661563 -0.050069176
000050 b2 d0 35 bd 30 07 40 bd a2 00 64 3d f8 2d 77 3d
       -0.04438848 -0.046881855 0.055664666 0.060346574
000060 22 25 72 bd f8 35 a8 3c 12 db 5f bd d4 c8 84 bc
       -0.059117444 0.020533547 -0.05465228 -0.016209044
000070 44 14 ac 3c a0 9a c7 3b de 90 75 3d 0c a0 c1 bc
       0.021005757 0.006091431 0.05995261 -0.023635887
000080 ac 50 ab 3c 00 8b 06 3d b0 de db 3c 58 54 a2 3c
       0.02091249 0.032847404 0.026839584 0.019815609
000090 68 be 25 bc 80 a6 ed ba 9e 35 3d bd 58 31 b3 3c
       -0.010116197 -0.0018131286 -0.04619371 0.021874115
0000a0 40 22 47 3b 72 f2 14 bd 08 46 2a 3c e0 ce 01 3d
       0.0030385405 -0.036364026 0.010392673 0.031691432
0000b0 c8 8f f4 bc 78 13 7c bc 70 6c 01 bc c0 c6 3c 3b
       -0.029853716 -0.015385501 -0.007899389 0.0028804988
0000c0 6a 74 0f bd c8 45 5d 3c 10 ef 5a 3c d4 f9 e6 3c
       -0.03502313 0.013505407 0.013362661 0.0281953
0000d0 e8 db 83 3c f8 ed 0d bd 40 77 49 bb 1c 59 dc 3c
       0.01609607 -0.034650773 -0.0030741245 0.02689796
0000e0 78 9b 83 bc a0 3c 52 3d 08 e8 09 3d 6c 56 5c 3d
       -0.016065344 0.051327348 0.033668548 0.053793356
0000f0 08 63 9f 3c 88 e0 6c bd a6 c7 3f bd a0 44 29 3c
       0.019456401 -0.057831317 -0.04682126 0.010331303
000100 d6 e2 7d 3d bc 00 50 bd c0 a6 d3 3c f4 c3 5b bd
       0.061983906 -0.05078195 0.025836349 -0.053653672
000110 7a 5b 57 bd 82 cc 68 3d bc d4 47 bd ec e5 57 bd
       -0.052577473 0.05683566 -0.048786864 -0.052709505
000120 18 c6 63 3c 44 01 7e 3d 5c d0 07 bd 80 78 46 3c
       0.01390221 0.062012926 -0.03315769 0.01211369
000130 fc a1 b6 3c 34 cc 57 3d dc 02 61 3d 70 16 e5 3c
       0.022294037 0.052684978 0.054934368 0.0279648
000140 6c 76 5f bd 38 c3 42 3d b0 d5 00 3c d2 78 41 3d
       -0.054556295 0.047549456 0.007863447 0.047234364
000150 5e 36 42 bd 20 bc de 3b 94 69 6a bd b0 3a ad 3b
       -0.04741513 0.0067973286 -0.057229593 0.005286537
000160 c0 90 5a 3c c8 cc 25 3d a8 23 94 3c b0 a6 30 3d
       0.013340175 0.040478498 0.018083408 0.043127716
000170 80 c7 5e ba 3c b1 c1 bc 44 00 c1 3c 1c 20 6d 3d
       -0.0008498356 -0.023644082 0.023559697 0.05789195
000180 de 5e 2e bd d0 4c 87 3c c0 11 f5 bb 34 b0 4a 3d
       -0.04257094 0.01651612 -0.0074789226 0.049484447
000190 40 35 6c 3b 36 0c 7e 3d a8 1f 7a 3d 78 71 b7 3c
       0.0036042482 0.062023364 0.061065346 0.022392973
0001a0 00 4f 66 ba 7c 42 65 bd 98 af e8 3c d0 40 74 bc
       -0.00087855756 -0.055971608 0.028404042 -0.014908031
0001b0 fc 25 66 3d 02 7a 61 3d fa e8 28 3d 60 af d9 bc
       0.05618857 0.055047996 0.04123781 -0.026572883
0001c0 a0 3f 6d bb 1a a2 4d bd c0 14 b3 3c e8 94 23 3d
       -0.0036201254 -0.05020342 0.02186048 0.03993693
0001d0 6c 97 4d 3d a6 3f 62 bd 34 d8 8e 3c 56 60 77 bd
       0.050193235 -0.05523648 0.017437078 -0.060394607
0001e0 08 3f f7 3c 6c 52 84 bc 18 81 0d bd 3a 57 15 3d
       0.030181423 -0.016152583 -0.03454694 0.03646014
0001f0 68 b0 4d 3c 68 1b 1d bd 66 89 6b 3d 78 7d 76 3c
       0.012554266 -0.038356215 0.05750408 0.0150445625
000200 b0 6e 22 bc 40 6e 68 bc 98 fd 09 3d a8 3c 46 bc
       -0.009914085 -0.014186442 0.03368911 -0.0120994225
000210 a4 6c ff 3c a4 5e bb bc 80 c6 66 bd fe 77 1f bd
       0.031179734 -0.022872277 -0.056341648 -0.038932793
000220 94 5b e2 3c 62 38 12 3d 90 2f 8a 3b 34 29 d0 3c
       0.027631558 0.035698302 0.0042170957 0.025410272
000230 12 8d 77 3d 0e b7 5b bd ac 7e 7d 3d 60 7b 89 3c
       0.06043727 -0.05364137 0.06188838 0.016782463
000240 26 cb 7d 3d 3c 8f a1 bc e8 74 0f bd 08 49 7b 3d
       0.061961316 -0.01972162 -0.0350236 0.061348945
000250 a0 74 59 3b a0 40 db 3c a0 b7 ae bc 24 ea 4a bd
       0.0033181086 0.026764214 -0.021327794 -0.0495397
000260 60 17 b0 bb 3a 7c 3a bd e8 26 c6 3c e0 b4 2e 3d
       -0.0053738803 -0.045528628 0.024188474 0.042652965
000270 98 d4 61 bc ba c3 24 3d 8a 65 2a bd 84 7c 2f 3d
       -0.013783596 0.040225722 -0.04160074 0.042843357
000280 84 09 6b bd c0 4d 4a bd c6 23 4e 3d e8 19 03 3c
       -0.05738212 -0.049390554 0.050327085 0.008001782
000290 26 eb 09 bd 60 6c 5e bd c6 a7 51 bd 80 10 d7 ba
       -0.03367152 -0.054302573 -0.05118539 -0.0016408116
0002a0 70 f6 22 3c 44 b2 63 bd 30 08 b8 bc 12 69 40 3d
       0.009946451 -0.05558993 -0.022464842 0.046975203
0002b0 f8 37 df 3c f6 d3 60 bd ec fb f7 3c e2 80 18 3d
       0.027248368 -0.05488964 0.030271493 0.037232287
0002c0 58 90 6a bd 0c ae ff bc 02 7e 7c 3d 44 bf 3a bd
       -0.057266563 -0.031210922 0.061643608 -0.04559256
0002d0 dc 92 2f 3d ee 96 5f 3d 80 96 12 3d 7c 5c 6d 3d
       0.042864665 0.054587297 0.03578806 0.057949528
0002e0 e6 5a 13 bd e8 ff 3d bd b0 59 61 3c 86 3d 17 bd
       -0.03597536 -0.04638663 0.013754293 -0.036923908
0002f0 24 d4 6a 3d 20 36 77 3b 60 4f bd 3c 90 02 35 bd
       0.05733122 0.003772147 0.023109138 -0.044191897
000300 80 85 9d 3c e4 a7 3a 3d e8 32 2a bd 2c cc bd bc
       0.019228697 0.04557027 -0.041552454 -0.023168646
000310 be b5 5a bd 88 d1 ae 3c d4 d9 9c 3c 32 cc 71 3d
       -0.05339598 0.021340147 0.019146837 0.059032626
000320 8c 78 67 bd 3c d1 39 bd ae 01 7b bd d4 95 57 bd
       -0.056511447 -0.045365557 -0.0612809 -0.05263312
000330 00 e4 15 39 40 ce 27 3c 94 00 af 3c 20 f3 4c 3d
       0.00014294684 0.010242045 0.02136258 0.05003655
000340 b2 69 5e bd ea d3 1f 3d f8 ae 5f 3d c0 63 33 bd
       -0.054300018 0.039020456 0.054610223 -0.0437963
000350 dc 6e a6 3c 10 fd 43 3c 38 19 a4 3c 20 96 a6 3b
       0.020316534 0.01196219 0.020031556 0.0050838143
000360 00 7e d7 bc 00 6c 3d ba ec 9d 14 3d 5c 58 b6 bc
       -0.026305199 -0.0007225871 0.03628342 -0.02225893
000370 a2 9c 11 3d 80 d4 67 ba f6 54 5d 3d 6c e2 41 3d
       0.035549767 -0.00088436157 0.054036103 0.047335073
000380 7e 35 4c 3d 40 22 33 bb 4a 5c 38 3d a0 62 00 bb
       0.0498557 -0.0027333647 0.04500989 -0.0019590035
000390 60 d8 7f 3b a4 e4 b8 3c 5c e9 cb 3c c4 c1 99 3c
       0.0039038882 0.022569962 0.024891548 0.018769152
0003a0 00 dc a8 bb e2 82 4d 3d be b0 34 3d 9a 66 5d 3d
       -0.005153179 0.050173648 0.044113867 0.054052927
0003b0 36 a2 33 3d 40 d0 c7 ba 40 5c d6 ba 24 88 0c 3d
       0.04385587 -0.0015244558 -0.0016354397 0.03430952
0003c0 28 ad 2c 3d 9a f2 50 bd 3a d4 48 bd 38 20 94 3c
       0.042157322 -0.051012613 -0.04903052 0.01808177
0003d0 0c 50 35 bd 54 2f f2 bc d8 c6 35 bc 8e 0f 21 3d
       -0.04426579 -0.029563583 -0.011094771 0.039321475
0003e0 5e f3 16 3d 38 00 84 3c fc 2d 68 bd 64 40 f6 3c
       0.036853187 0.016113386 -0.05668448 0.03006
0003f0 08 0d f4 3c f0 5f 91 3c 50 7c 96 bc 8a 95 47 3d
       0.02979137 0.017745942 -0.018369824 0.048726596

bias f4 [120]
000000 cc 3d 14 3d 04 8c 91 bc 60 a7 3d 3c 00 a1 fa 39
       0.036191747 -0.01776696 0.01157555 0.0004780367
000010 b4 70 f1 bc de 35 22 3d 50 bb b9 bc c0 a2 49 bb
       -0.029472686 0.039602153 -0.022672325 -0.0030767173
000020 58 2d 36 3d 3e 3c 37 3d 60 a4 07 bb 9e fa 14 bd
       0.044476837 0.044735186 -0.002069734 -0.03637182
000030 d0 3e c3 3b b8 db 68 3d e8 21 ce 3c 28 46 1d 3c
       0.0059584156 0.056850165 0.025162652 0.009599246
000040 a0 d4 26 bb e2 e8 70 3d 38 61 6d bc a8 3e cc bc
       -0.0025456324 0.058815844 -0.014488511 -0.02493222
000050 84 9f fd bc 18 6c 4d 3d fe 62 7a 3d 7c bf d7 bc
       -0.030959852 0.050151914 0.061129563 -0.026336424
000060 b0 f3 55 3c 98 da 03 bd 30 de 3e bd 36 a1 40 bd
       0.013058588 -0.03219089 -0.046598613 -0.047028743
000070 cc a7 91 bc 02 4b 6c bd 7a 0d 70 bd fc bb 9f 3c
       -0.017780207 -0.05768872 -0.058606602 0.019498818
000080 28 3d 66 3d b8 73 9d 3c 40 9c 8e bb 8e cd 5a bd
       0.056210667 0.019220218 -0.0043521225 -0.05341869
000090 e0 47 5c bb 94 82 28 3d 6a ad 73 bd 30 ce d4 3c
       -0.0033612177 0.041140154 -0.059491552 0.025977224
0000a0 b2 44 2d 3d 60 55 09 3c 24 78 27 bd 1c bc db 3c
       0.04230184 0.008382171 -0.04088606 0.026823096
0000b0 48 f7 39 bd b8 aa 9e bc 80 57 64 3b 6c d1 33 3d
       -0.04540184 -0.019368514 0.0034842193 0.043900892
0000c0 14 6d bf bc 46 27 28 3d 78 87 1a 3d 60 44 1f bb
       -0.023367442 0.04105308 0.03772685 -0.002430223
0000d0 a8 da c6 bc 34 c6 4a 3d a8 5a ef 3c 3c 3d 77 bd
       -0.024274185 0.049505427 0.029218033 -0.060361132
0000e0 0c 74 5b bd fa ca 59 3d 68 f2 b1 3c 00 de d9 3b
       -0.053577468 0.05317209 0.021722034 0.006648779
0000f0 02 33 26 bd 28 f7 2c 3c 64 26 6c bd f4 72 50 3d
       -0.04057599 0.0105569735 -0.0576538 0.050890878
000100 4e 76 13 bd a0 39 89 bc 80 f7 3c bc 0e 67 01 3d
       -0.036001496 -0.01675111 -0.011533618 0.03159242
000110 50 d8 e4 bc f0 76 c3 3b 4e aa 59 3d d4 73 56 3d
       -0.027935177 0.005965106 0.05314093 0.052356556
000120 60 9a d8 bb c0 5f c7 bc 84 43 ce 3c 2e 60 10 bd
       -0.0066102 -0.02433765 0.025178678 -0.035247974
000130 c0 d4 69 3d a4 c7 12 bd 5a 87 64 3d c4 59 62 bd
       0.05708766 -0.035834923 0.055793144 -0.05526139
000140 c4 46 67 bd a8 84 e2 bc ce 75 4c 3d 6a 4f 10 bd
       -0.05646397 -0.027651146 0.049917035 -0.035231985
000150 6e 6b 70 bd 40 3b 16 3b 8c e4 59 bd 68 4f 0a 3c
       -0.058696203 0.00229235 -0.053196475 0.0084417835
000160 b6 ca 72 3d e0 44 55 bc a4 3b 5f bd 4a f3 2d bd
       0.05927535 -0.013016909 -0.054500237 -0.042468347
000170 20 bd b2 3c e0 41 3d 3c b8 dd 2f 3c 5a 9f 5f 3d
       0.021818697 0.01155135 0.010734014 0.05459533
000180 00 d7 31 bb bc 39 c4 3c 00 fb 36 bc d8 48 10 bd
       -0.0027136207 0.023953311 -0.0111682415 -0.03522572
000190 b8 61 b8 3c 00 bf 6f 3b 5e 6c 1a bd 00 b6 89 ba
       0.022507533 0.003658235 -0.037701003 -0.0010506511
0001a0 80 23 89 bb b0 5c 76 3c 78 92 19 bc cc 43 bf 3c
       -0.00418514 0.015036747 -0.0093733 0.023347758
0001b0 a4 81 02 bd 8e 2a 61 3d f6 eb 3a 3d 1a ae 16 3d
       -0.031861916 0.054972224 0.045635186 0.03678713
0001c0 04 b9 4e 3d 14 db 39 bd c6 fc 00 3d 10 1d 2d 3c
       0.050469413 -0.045374945 0.031491064 0.010566011
0001d0 bc c6 7d 3d 50 c1 ff 3c b0 32 92 3c 30 15 09 bc
       0.061957106 0.031220108 0.017846435 -0.008366868

weight f4 [84, 120]
000000 9d 1e 22 bd a8 51 b2 bd 2a f0 b8 3d 20 30 b9 bd
       -0.039579976 -0.08706981 0.09030183 -0.09042382
000010 f0 2f 42 bc 2d f3 9e bd f8 70 68 3d 50 76 8b bc
       -0.0118522495 -0.07761226 0.05674836 -0.01702419
000020 c6 70 9c 3d 5c f3 44 3d 97 21 b8 bd 7c 12 8c 3d
       0.07638697 0.048083648 -0.08990782 0.06839463
000030 ce d4 92 3d c0 c4 29 3d 34 f1 a5 3d 68 99 4b bc
       0.071694955 0.0414474 0.081026465 -0.012426712
000040 c4 33 30 3d 16 73 b5 3d 44 cc e3 bc 90 82 ae 3b
       0.043018118 0.088598415 -0.027807362 0.005325623
000050 f7 1c aa bd 94 17 a1 bc 36 94 ac 3d 8a d5 08 bd
       -0.08306306 -0.019664563 0.084267065 -0.03340677
000060 40 ed 9a ba a4 a3 9c 3c 24 a6 5e 3d fa ae 46 bd
       -0.0011819974 0.019120999 0.054357663 -0.048506714
000070 34 00 9e 3d 13 7f 90 bd 68 af 43 3d c4 1f e0 3c
       0.077148825 -0.070554875 0.047774702 0.027358897
000080 3e f0 48 bd 9c 53 04 3d ac 46 4a bd 7c bf 15 3d
       -0.049057238 0.0323063 -0.049383804 0.036559567
000090 c8 27 f9 3c 27 e2 b9 bd 64 ab 92 3c b0 d3 33 3d
       0.030414477 -0.09076338 0.017903991 0.043903053
0000a0 b9 01 b0 bd 1e 18 3d bd dc 62 3b 3d b0 b2 1f 3d
       -0.085940786 -0.046165578 0.045748577 0.03898877
0000b0 2a 4e 88 bd ac 4a d7 bc f8 52 f4 3c a4 6e cc 3c
       -0.066555336 -0.026280724 0.029824719 0.024955101
0000c0 54 88 92 3d 4b ef 41 bd c6 9c 96 bd bf d7 31 bd
       0.07154909 -0.04734735 -0.07354121 -0.043418642
0000d0 00 ce 54 3a a0 68 da 3b b4 c5 89 3c 34 6d 38 3d
       0.00081178546 0.0066653043 0.016817905 0.04502602
0000e0 a8 f9 4f 3d 84 21 82 3c bf 6d 0c bd 20 8d 99 3d
       0.0507752 0.015885122 -0.03428435 0.074976206
0000f0 f1 d5 25 bd 2c e5 3d bd ea ba 0b bd b5 3a ac bd
       -0.040487234 -0.046361133 -0.034113802 -0.08409635
000100 1c 3c 6b 3d f8 4e e7 3c c4 46 93 bd e8 5a 49 3c
       0.05743037 0.028235897 -0.07191232 0.01228974
000110 75 f1 35 bd e0 44 45 3b 80 82 c5 3a d0 6b 79 3d
       -0.044419724 0.0030100867 0.0015068799 0.060893834
000120 f0 82 af 3d 1c b6 1e 3d 13 7b 6b bd cc 10 b5 3d
       0.08569896 0.03874789 -0.05749042 0.088410944
000130 c6 e7 86 bd 68 28 5d bc e0 ca 7c 3d 58 75 5d 3c
       -0.06587176 -0.013498403 0.061716914 0.013516746
000140 28 9c 07 3c 5c 5c 9a 3c 84 76 38 3d 18 a4 78 bd
       0.008276977 0.018842869 0.0450349 -0.060703367
000150 44 ea c7 bc 80 07 03 bc dc b4 4b 3d 8f 98 8d bd
       -0.024403699 -0.007997394 0.049733028 -0.06913864
000160 d8 5b 12 3d be 18 11 bd 60 5d 1c 3c f4 9c ed 3c
       0.03573212 -0.035423987 0.009543747 0.029005505
000170 10 59 85 3c b8 59 05 3c a8 37 32 bd 3c 6d df 3c
       0.01627782 0.008139066 -0.04351011 0.027273767
000180 f0 bd d2 bb 78 b5 17 3d 69 1d 95 bd 38 9a 27 3c
       -0.0064313337 0.037038296 -0.07281 0.01022964
000190 26 4f 99 3d c8 48 7d 3d 35 04 af bd 90 43 ac bc
       0.074857995 0.061836988 -0.08545724 -0.02102831
0001a0 c8 36 88 3d 22 4e b8 bd 78 ea d4 3c 86 8d ae bd
       0.06651074 -0.08999278 0.02599071 -0.08523087
0001b0 25 8b 84 bd 64 23 0b bd 54 f5 36 3d 38 1f b9 bd
       -0.06471852 -0.033969298 0.044667557 -0.09039158
0001c0 a6 05 a7 3d ac a5 d5 3c 04 af 6c 3d 34 28 00 3d
       0.08155374 0.026079975 0.057784095 0.03128834
0001d0 60 3e 8c 3d 14 3d e5 3c 32 5a b1 bd f7 ba 2f bd
       0.068478346 0.027983226 -0.086597815 -0.042902913
0001e0 b0 be 47 3d 5e 27 9c 3d e8 39 7f 3d 46 74 04 3d
       0.04876584 0.07624696 0.062311083 0.03233745
0001f0 16 47 83 3d b6 6a 59 bd d4 45 35 3d 74 ce 9f bc
       0.06410043 -0.053080283 0.044256046 -0.019507624
000200 22 9f b6 3d 20 e3 0d bc e4 8c bf 3c 52 16 a2 3d
       0.08917071 -0.008660108 0.023382612 0.079144135
000210 6c f8 f2 3c 2c 98 dd bc a4 d3 92 3d 88 6d a9 bd
       0.029659472 -0.0270501 0.071692735 -0.082728446
000220 ee b1 a4 3d 70 98 3f 3d 61 41 92 bd d4 b4 d6 3c
       0.0804175 0.046776235 -0.07141376 0.026209272
000230 1e 7f a7 bd 09 ee a0 bd bc 3c a2 3c 44 78 98 3c
       -0.081785426 -0.078579016 0.019804351 0.018612035
000240 58 99 28 3c 70 4d a7 bd 80 9b d8 3b f2 59 24 bd
       0.010290466 -0.08169067 0.006610334 -0.04012484
000250 48 89 99 bd 9c e5 b5 bc 6e 0d 8d bd 50 5f f1 bb
       -0.074968874 -0.022204213 -0.06887327 -0.0073660985
000260 86 4a 91 3d ec 67 3c 3d 2c 6e 14 3d 28 81 e6 bc
       0.07094292 0.045997545 0.03623788 -0.028137758
000270 c0 07 ad bd 0b df b2 bd cd f4 b0 bd 50 5c 7f 3d
       -0.08448744 -0.08733948 -0.08640442 0.062343895
000280 c2 05 1a bd 6b 5c 9d bd 3c c2 1c 3d 92 e9 2a bd
       -0.037603147 -0.07683643 0.038271174 -0.041726656
000290 24 b8 33 3d bc a2 25 3d d8 35 15 3c b8 ad f3 3c
       0.043876782 0.0404384 0.009107076 0.029745921
0002a0 a8 a1 03 3c 50 78 9d 3b 22 23 8b 3d d8 17 d2 bc
       0.008034147 0.004805602 0.067938104 -0.025646135
0002b0 4c 51 52 bd 9c e3 2d 3d 28 5c ac bd 90 0f aa bd
       -0.051347062 0.042453393 -0.08416015 -0.083037496
0002c0 66 53 94 3d b6 f7 84 3d 35 f8 45 bd 72 56 80 3d
       0.072424695 0.064925596 -0.04833241 0.06266488
0002d0 82 b9 96 bd 4c f7 c9 3c b5 0b 8b bd d8 38 0b bd
       -0.073596016 0.024654053 -0.06789342 -0.033989757
0002e0 e0 50 61 bb 6d b2 ab bd 50 49 43 3d 80 5a 78 3b
       -0.003438048 -0.083836414 0.047677338 0.003789574
0002f0 98 29 17 3c 18 2b b0 3c 44 ea 5e 3d 90 ab 78 3c
       0.009226225 0.021504924 0.05442263 0.015177622
000300 be 63 a5 bd e4 73 b9 3d 70 64 24 3c 26 45 b5 3d
       -0.08075665 0.090553075 0.010033712 0.0885108
000310 a4 ac b4 3d 86 ae 8f 3d 1c 17 8a bd f8 8f 75 3d
       0.08821991 0.070157096 -0.06742689 0.059951752
000320 b0 9f a7 bc 72 f9 a6 3d b0 ff fb 3b c4 99 ad 3d
       -0.020461887 0.08153047 0.0076903924 0.08476594
000330 54 b5 db bc 28 6e 1c bc 34 86 20 3d 44 9b 0d 3d
       -0.026819862 -0.009547748 0.039190486 0.0345719
000340 48 3f db 3c 30 1b 6f bc 84 cb 98 bd 29 08 a1 bd
       0.026763573 -0.014593884 -0.074606925 -0.078628846
000350 bc b2 38 3d 57 6d 3f bd 80 1f a2 bb 38 17 4a 3c
       0.04509233 -0.046735134 -0.0049476027 0.012334637
000360 38 a9 32 bc dc e7 5e bd d8 e3 8c 3d eb 81 8b bd
       -0.010904603 -0.054420337 0.06879395 -0.06811889
000370 17 31 69 bd 28 da b6 bd 74 49 91 3d 98 1a 3e 3d
       -0.05693158 -0.08928329 0.07094088 0.04641208
000380 3c 58 e1 3c 80 16 46 3a 79 fa 4e bd 0c b0 9f 3d
       0.027507894 0.00075564533 -0.050531838 0.0779725
000390 e8 4a 42 3c 50 8a 3c 3d 54 b4 49 bd b4 dc b8 3d
       0.011858679 0.046030343 -0.04924424 0.09026471
0003a0 30 62 4f bc 0c ce 7b bd d0 d2 a7 3c 20 26 8f 3b
       -0.012657687 -0.0614758 0.020486265 0.0043685585
0003b0 78 2d 7b 3d c2 52 b8 bd f2 43 b7 3d 40 29 09 3c
       0.06132266 -0.0900016 0.089485064 0.008371651
0003c0 80 70 0b bc ba cc 92 bd 08 78 c2 bc 64 7f 55 3d
       -0.008510709 -0.07167955 -0.023738876 0.052123442
0003d0 b0 44 2d 3d 28 6d 78 3d 95 c8 18 bd 00 78 23 bb
       0.042301834 0.060650975 -0.037300665 -0.0024943352
0003e0 3d ad 6c bd f0 1a 82 bd 80 24 80 3b 82 c4 70 bd
       -0.0577824 -0.06352794 0.003910601 -0.058781154
0003f0 a8 9a 89 bd 30 ee 2a bc ec e7 ac 3d 7c ce eb bc
       -0.067189515 -0.010432765 0.08442673 -0.028784983

bias f4 [84]
000000 84 25 31 3d 0e 8b 7b bd e8 c1 d6 3c ac 39 80 3d
       0.04324867 -0.06141191 0.026215509 0.06261
000010 04 76 6f 3d f6 3f 31 bd ec 6c a9 3c fc 59 9e bd
       0.058462158 -0.04327389 0.02068182 -0.07732007
000020 bc fe 26 3d 2e bb 81 bd c8 78 5a 3c 80 0e 0c 3a
       0.040770277 -0.0633453 0.013334461 0.0005342737
000030 ce 8d 9b 3d 30 3b e9 3c 3f 24 5c bd be e0 90 bd
       0.075954065 0.028470606 -0.053745504 -0.07074116
000040 d0 ad 5b 3c f8 cc b5 3d e8 57 04 3d d8 d3 d2 3c
       0.013408139 0.08876985 0.032310396 0.02573578
000050 9b 8b 9e bd 68 9e 1b 3d c0 32 8a bc 50 b1 df bc
       -0.077414714 0.037992865 -0.016869903 -0.027306229
000060 c0 b1 22 bc 8c 95 42 3d 22 bf b1 bd 80 bd e0 ba
       -0.009930074 0.0475059 -0.08679034 -0.0017146319
000070 6b 79 8a bd 0c 4a 45 3d 40 49 b4 ba ae 91 a0 bd
       -0.0676144 0.04816632 -0.001375474 -0.07840286
000080 28 c7 18 bd 9c 5c 24 3d e4 98 85 3c f8 4d 3e bd
       -0.037299305 0.04012738 0.016308255 -0.046461076
000090 f2 55 98 3d b4 e0 a9 3d 78 69 05 3c 14 18 97 3d
       0.07438268 0.08294812 0.0081428215 0.073776394
0000a0 b1 11 5f bd 48 d7 15 3d 00 70 72 b9 7a e2 b8 3d
       -0.05446023 0.03658226 -0.00023120642 0.09027572
0000b0 00 0a d7 b9 f8 d6 5d bc 50 cd ad bb 1c 04 8b 3c
       -0.00041015446 -0.013540022 -0.005304016 0.016969733
0000c0 b0 8e f5 bc 80 b6 ff 3b d0 57 a8 bc c0 a7 ac bb
       -0.029975265 0.007803738 -0.020549685 -0.005269021
0000d0 f0 a6 95 bd 60 0a 04 3c a4 3c 92 bd a8 84 0c 3d
       -0.073072314 0.008059114 -0.071404725 0.0343062
0000e0 34 d8 b6 3c b0 2a a7 3b e9 4e 99 bd b8 0c 49 3c
       0.02231989 0.0051015243 -0.07485754 0.012271099
0000f0 c8 e9 12 3c c0 ff e3 ba e0 8c b3 3b e1 f1 9f bd
       0.008966871 -0.0017394945 0.00547944 -0.078098066
000100 b4 05 77 3d 4b 16 ac bd b2 96 08 3d 02 fb 07 3d
       0.060308173 -0.084026895 0.03334684 0.033198364
000110 08 6c 7c bc 50 b3 6f 3c 51 54 a6 bd bf 18 56 bd
       -0.015406616 0.014630154 -0.08121551 -0.052269693
000120 e0 75 86 bc e8 ad af 3c f0 08 12 bc 78 29 2a bd
       -0.016413629 0.02144523 -0.008913264 -0.041543454
000130 28 94 53 3d d4 80 7c 3d 26 80 9a 3d e8 65 27 3c
       0.051654965 0.061646298 0.075439736 0.010217167
000140 df cd b1 bd 10 b3 e8 3c f2 a3 b5 3d fa 5e 87 bd
       -0.08681845 0.028405696 0.08869161 -0.06609912

weight f4 [10, 84]
000000 88 56 16 3c 51 bc b2 bd e0 14 d9 bc 34 d2 8a bd
       0.009175904 -0.08727325 -0.026499212 -0.06778374
000010 b1 aa 8b 3d 8b 6f b8 3d b0 e0 7a 3c 8a b8 44 3d
       0.06819666 0.0900565 0.015312359 0.048027553
000020 e5 c5 a9 3d e0 ae f9 bb fa 63 0a bd a0 a6 0a 3b
       0.082896985 -0.0076197237 -0.03378675 0.0021156445
000030 bd 2a d6 3d 2f 4f 86 3d 9c 10 d9 bc 36 63 11 3d
       0.104573704 0.06558072 -0.026497178 0.035495006
000040 45 25 df bd fc b3 a7 3c 40 8a c9 ba 4a 67 02 bd
       -0.108957805 0.020471565 -0.0015376285 -0.031836785
000050 00 34 b0 bd 5f 7f 74 bd a0 d0 27 3c 4c 6e cc 3c
       -0.08603668 -0.059691783 0.010242611 0.024954937
000060 2f f5 c5 3d be 46 96 bd 00 70 e0 3b e0 00 5e 3b
       0.09665906 -0.07337712 0.006849289 0.0033875033
000070 4e a2 d1 bd 00 79 54 3b 4f bd 9b bd 00 cd 64 ba
       -0.10236035 0.0032420754 -0.07604467 -0.0008728057
000080 78 e3 c6 bc 38 8f 08 bd 6c de ea bc c5 f9 69 bd
       -0.024278387 -0.03333971 -0.028670512 -0.057122964
000090 9c 79 c0 3c 58 c3 63 bc ec a4 f3 bc 98 d8 c4 bd
       0.023495488 -0.013901554 -0.029741727 -0.096116245
0000a0 53 34 c6 bd f7 20 bd 3d 73 2b ba bd 3c 1d c1 3c
       -0.09677949 0.09234803 -0.090903185 0.02357351
0000b0 73 5b c5 3d f0 72 25 3c bc be c9 bd d8 ab 44 bc
       0.09636583 0.010098204 -0.09850833 -0.012003861
0000c0 60 55 a0 bc 1c d1 e6 3c ff b5 73 bd 7c f3 8e 3c
       -0.01957196 0.028175883 -0.059499737 0.017450087
0000d0 65 5a da 3d f6 61 9c bd 40 86 a2 3a 71 2a c2 3d
       0.10661773 -0.07635872 0.0012399629 0.09480751
0000e0 eb ca b5 3d 5a 1a 01 bd 9c e6 ba 3c 17 2d 88 3d
       0.08876594 -0.03151927 0.022815041 0.06649225
0000f0 1b 21 b2 3d 1b 5c ba bd 10 1e 98 bb 86 f6 34 3d
       0.086977206 -0.09099599 -0.0046422556 0.044180416
000100 6d fb 99 3d 88 18 48 3c a0 a6 ae bd 9f d1 b5 3d
       0.07518659 0.01221288 -0.08527875 0.08877873
000110 7a a6 3c 3d d4 e7 0b bd a8 d5 58 bc 32 c3 59 3d
       0.046057202 -0.034156635 -0.013234533 0.05316467
000120 a0 ba 25 3c 12 aa 37 bd ad 79 b5 3d df 27 b2 3d
       0.010115296 -0.044839926 0.088610984 0.08699011
000130 8f 62 d9 3d 22 96 45 3d f4 51 90 3c 78 d4 76 bc
       0.10614502 0.04823888 0.017617203 -0.015065305
000140 48 40 1d bc 4f 66 9c 3d 12 11 d9 bd f3 30 55 bd
       -0.009597845 0.07636701 -0.10598959 -0.052048635
000150 c6 53 0e 3d 00 80 92 b8 1d 7a ac 3d 12 e6 09 3d
       0.03474786 -6.9856644e-05 0.08421729 0.033666678
000160 da 63 3b 3d 3c a5 5d bd 58 53 48 3c 10 a0 ed bc
       0.045749523 -0.054112658 0.012226902 -0.029006988
000170 8c 88 1a bd 28 e6 cd bc 28 84 e5 bc 26 cf 35 bd
       -0.037727877 -0.025134161 -0.028017119 -0.044387005
000180 ae ae 04 3d 0c b1 9d 3c 60 92 18 bc 0e 3b 1a 3d
       0.03239315 0.019249462 -0.009312242 0.037653975
000190 34 c1 b1 bd 1c 45 98 3c 60 65 d4 bb f1 19 8c 3d
       -0.08679429 0.018587641 -0.0064818114 0.068408854
0001a0 6e 88 19 3d 8b 34 94 3d a6 ae 77 3d dd bb c3 3d
       0.037483625 0.07236584 0.060469292 0.095573165
0001b0 c4 bc a9 bd d0 02 b8 bd cf 06 d2 3d 26 50 08 bd
       -0.08287957 -0.089849114 0.10255205 -0.03327956
0001c0 04 09 bf 3c 63 41 c1 3d f0 c8 3c bd 80 74 3c 3b
       0.023319729 0.094363 -0.046090066 0.0028755963
0001d0 6c 36 8a bc 64 c7 b4 bd 6a 33 54 3d 59 49 b7 3d
       -0.016871653 -0.08827093 0.051806845 0.08949537
0001e0 00 5a 20 3c d6 98 7c 3d 3b 9d b3 3d df 5f a5 3d
       0.009787083 0.061669193 0.08770224 0.080749266
0001f0 15 18 c7 3d f9 6e 84 bd 60 99 c1 bc b0 8c 15 3c
       0.0972139 -0.06466479 -0.023632705 0.009127781
000200 ec b7 99 bd 38 e6 a6 bd e6 36 82 bd 19 62 c3 3d
       -0.075057834 -0.081493795 -0.06358127 0.09540195
000210 f4 4c 80 bd 65 50 db 3d ba 2a 2b bd b8 4e be bd
       -0.06264678 0.107086934 -0.041788794 -0.09292358
000220 0d e3 db 3d d9 d0 b8 3d a1 49 c2 bd 45 ce d0 3d
       0.10736666 0.090242095 -0.094867 0.10195593
000230 23 57 c9 3d 1c c9 bb bc b6 16 11 3d bc 9f 88 bd
       0.09831073 -0.022923045 0.03542205 -0.06671092
000240 60 28 bf bb de 02 0e bd 40 8c 44 bc 55 64 b2 3d
       -0.0058336705 -0.034670703 -0.011996329 0.08710543
000250 4a ea 88 bd 98 b6 96 bc f6 7e 40 bd 70 4a 8b 3b
       -0.06685312 -0.018397614 -0.04699608 0.004250817
000260 9d 67 b9 3d b5 44 ae 3d d0 d7 4d bc 48 ba ba bd
       0.09052966 0.085091986 -0.012563661 -0.091175616
000270 60 6a 1b bb b4 57 cc 3c d2 f9 b7 bd 71 26 ce bd
       -0.0023714527 0.024944164 -0.08983196 -0.10065926
000280 fe a7 39 3d c1 27 a0 3d ff a5 95 3d 40 38 fd bc
       0.045326225 0.078200825 0.07307052 -0.030910611
000290 85 44 9b 3d 62 62 20 3d 42 c2 0a bd 0a 70 1d bd
       0.075814284 0.039156325 -0.033876665 -0.038436927
0002a0 ce 2e 74 3d 60 80 14 bb b5 c7 aa 3d 40 ed aa bd
       0.05961495 -0.0022659525 0.08338872 -0.08346033
0002b0 da 84 94 bd 38 09 9d bc 3f 58 58 bd 97 df 99 3d
       -0.07251902 -0.019169435 -0.052818533 0.075133495
0002c0 da ea 77 3d 3a d0 3e 3d c8 bd a5 bd 6c 5c a1 3c
       0.060526706 0.0465853 -0.080928385 0.01969739
0002d0 5d 22 d1 3d 21 7c b6 3d 5c ab c8 3c b2 7d 2e 3d
       0.102116324 0.089103945 0.024495773 0.04260034
0002e0 6c 64 b4 bc 9f 99 bc 3d 04 12 8d bd 99 60 a3 3d
       -0.022020541 0.092089884 -0.06888202 0.07977409
0002f0 1a 86 1d 3d d2 f3 1a 3d 2d f2 53 bd 77 2a 53 bd
       0.038457967 0.03783018 -0.05174463 -0.05155417
000300 b4 68 10 bd d5 27 cc bd 0f cc 8f 3d f8 86 fc bc
       -0.035256103 -0.09968535 0.07021343 -0.030826077
000310 5a 92 7f 3d ca 03 21 bd d0 53 7c bc 20 c1 a4 bd
       0.06239543 -0.039310254 -0.015400842 -0.08044648
000320 3c 7f 4d bd 2f 90 64 bd 52 b9 44 3d a0 50 46 3b
       -0.05017017 -0.055801567 0.048028298 0.0030260459
000330 f1 8f 78 bd af a2 87 3d fc 99 97 3c e7 a6 7f bd
       -0.06068415 0.06622826 0.018506043 -0.06241503
000340 24 e3 dd 3c 00 b3 ca ba 42 1c da bd cf 70 b8 bd
       0.027085848 -0.0015464723 -0.10649921 -0.090058915
000350 ca a0 31 bd 9f d8 85 3d 5c d4 9f bd 68 dd a4 bd
       -0.04336623 0.06535458 -0.07804176 -0.080500424
000360 b0 8d 4a bc f6 1c 36 bd 60 a7 df 3b b8 58 4a bc
       -0.0123628825 -0.044461213 0.0068253726 -0.012350254
000370 69 d0 ba bd 2d dc cb 3d fe 1f 84 bd c0 f5 82 3a
       -0.09121782 0.099541046 -0.064514145 0.0009991452
000380 12 18 49 3d 66 a2 1c bd 3d 4f 9b 3d 1e 1e 1a 3d
       0.04909522 -0.038240813 0.07583473 0.03762638
000390 52 d7 76 3d 92 b4 36 3d b0 12 80 bc 83 3a 86 3d
       0.06026394 0.0446058 -0.01563391 0.06554129
0003a0 cf a2 a6 bd 8c 42 d0 3c 1a e5 84 bd 30 bb 93 bd
       -0.08136522 0.025422357 -0.0648901 -0.072134376
0003b0 91 89 a2 3d d8 07 50 bc 2d 81 a8 bd 94 a3 71 bd
       0.07936395 -0.012697183 -0.08227763 -0.05899389
0003c0 de 18 ce bd 06 70 0c 3d 9c 08 fc 3c f0 4d 68 3c
       -0.10063337 0.03428652 0.030765824 0.014178738
0003d0 7a 84 6b 3d 75 63 de 3d 87 85 8c 3d 7a 27 08 3d
       0.057499386 0.10858814 0.06861406 0.033240773
0003e0 a7 7a 88 3d b3 87 8f bd ef 90 dc 3d 80 97 58 ba
       0.06664019 -0.070083044 0.107698314 -0.00082623214
0003f0 ef b0 b8 3d 47 cc a6 bd be b7 9c bd 07 0b b3 3d
       0.090181224 -0.081444316 -0.076522335 0.08742338

bias f4 [10]
000000 2d 06 8f 3d c0 ef 20 bb c0 64 ae 3a 80 9a db ba
       0.069836 -0.0024556965 0.0013305172 -0.0016754419
000010 23 22 ad 3d 29 38 c4 3d af d9 a3 3d d4 42 15 bd
       0.08453777 0.09581024 0.08000504 -0.036440685
000020 10 09 af 3b fc 62 8c 3c
       0.0053416565 0.017137043
